{"class_name": "Model", "config": {"name": "deeplabv3plus", "layers": [{"name": "input_4", "class_name": "InputLayer", "config": {"batch_input_shape": [null, 256, 256, 3], "dtype": "float32", "sparse": false, "name": "input_4"}, "inbound_nodes": []}, {"name": "Conv", "class_name": "Conv2D", "config": {"name": "Conv", "trainable": true, "dtype": "float32", "filters": 32, "kernel_size": [3, 3], "strides": [2, 2], "padding": "same", "data_format": "channels_last", "dilation_rate": [1, 1], "activation": "linear", "use_bias": false, "kernel_initializer": {"class_name": "GlorotUniform", "config": {"seed": null, "dtype": "float32"}}, "bias_initializer": {"class_name": "Zeros", "config": {"dtype": "float32"}}, "kernel_regularizer": null, "bias_regularizer": null, "activity_regularizer": null, "kernel_constraint": null, "bias_constraint": null}, "inbound_nodes": [[["input_4", 0, 0, {}]]]}, {"name": "Conv_BN", "class_name": "BatchNormalization", "config": {"name": "Conv_BN", "trainable": true, "dtype": "float32", "axis": [3], "momentum": 0.999, "epsilon": 0.001, "center": true, "scale": true, "beta_initializer": {"class_name": "Zeros", "config": {"dtype": "float32"}}, "gamma_initializer": {"class_name": "Ones", "config": {"dtype": "float32"}}, "moving_mean_initializer": {"class_name": "Zeros", "config": {"dtype": "float32"}}, "moving_variance_initializer": {"class_name": "Ones", "config": {"dtype": "float32"}}, "beta_regularizer": null, "gamma_regularizer": null, "beta_constraint": null, "gamma_constraint": null}, "inbound_nodes": [[["Conv", 0, 0, {}]]]}, {"name": "Conv_Relu6", "class_name": "Activation", "config": {"name": "Conv_Relu6", "trainable": true, "dtype": "float32", "activation": "relu6"}, "inbound_nodes": [[["Conv_BN", 0, 0, {}]]]}, {"name": "expanded_conv_depthwise", "class_name": "DepthwiseConv2D", "config": {"name": "expanded_conv_depthwise", "trainable": true, "dtype": "float32", "kernel_size": [3, 3], "strides": [1, 1], "padding": "same", "data_format": "channels_last", "dilation_rate": [1, 1], "activation": "linear", "use_bias": false, "bias_initializer": {"class_name": "Zeros", "config": {"dtype": "float32"}}, "bias_regularizer": null, "activity_regularizer": null, "bias_constraint": null, "depth_multiplier": 1, "depthwise_initializer": {"class_name": "GlorotUniform", "config": {"seed": null, "dtype": "float32"}}, "depthwise_regularizer": null, "depthwise_constraint": null}, "inbound_nodes": [[["Conv_Relu6", 0, 0, {}]]]}, {"name": "expanded_conv_depthwise_BN", "class_name": "BatchNormalization", "config": {"name": "expanded_conv_depthwise_BN", "trainable": true, "dtype": "float32", "axis": [3], "momentum": 0.999, "epsilon": 0.001, "center": true, "scale": true, "beta_initializer": {"class_name": "Zeros", "config": {"dtype": "float32"}}, "gamma_initializer": {"class_name": "Ones", "config": {"dtype": "float32"}}, "moving_mean_initializer": {"class_name": "Zeros", "config": {"dtype": "float32"}}, "moving_variance_initializer": {"class_name": "Ones", "config": {"dtype": "float32"}}, "beta_regularizer": null, "gamma_regularizer": null, "beta_constraint": null, "gamma_constraint": null}, "inbound_nodes": [[["expanded_conv_depthwise", 0, 0, {}]]]}, {"name": "expanded_conv_depthwise_relu", "class_name": "Activation", "config": {"name": "expanded_conv_depthwise_relu", "trainable": true, "dtype": "float32", "activation": "relu6"}, "inbound_nodes": [[["expanded_conv_depthwise_BN", 0, 0, {}]]]}, {"name": "expanded_conv_project", "class_name": "Conv2D", "config": {"name": "expanded_conv_project", "trainable": true, "dtype": "float32", "filters": 16, "kernel_size": [1, 1], "strides": [1, 1], "padding": "same", "data_format": "channels_last", "dilation_rate": [1, 1], "activation": "linear", "use_bias": false, "kernel_initializer": {"class_name": "GlorotUniform", "config": {"seed": null, "dtype": "float32"}}, "bias_initializer": {"class_name": "Zeros", "config": {"dtype": "float32"}}, "kernel_regularizer": null, "bias_regularizer": null, "activity_regularizer": null, "kernel_constraint": null, "bias_constraint": null}, "inbound_nodes": [[["expanded_conv_depthwise_relu", 0, 0, {}]]]}, {"name": "expanded_conv_project_BN", "class_name": "BatchNormalization", "config": {"name": "expanded_conv_project_BN", "trainable": true, "dtype": "float32", "axis": [3], "momentum": 0.999, "epsilon": 0.001, "center": true, "scale": true, "beta_initializer": {"class_name": "Zeros", "config": {"dtype": "float32"}}, "gamma_initializer": {"class_name": "Ones", "config": {"dtype": "float32"}}, "moving_mean_initializer": {"class_name": "Zeros", "config": {"dtype": "float32"}}, "moving_variance_initializer": {"class_name": "Ones", "config": {"dtype": "float32"}}, "beta_regularizer": null, "gamma_regularizer": null, "beta_constraint": null, "gamma_constraint": null}, "inbound_nodes": [[["expanded_conv_project", 0, 0, {}]]]}, {"name": "expanded_conv_1_expand", "class_name": "Conv2D", "config": {"name": "expanded_conv_1_expand", "trainable": true, "dtype": "float32", "filters": 96, "kernel_size": [1, 1], "strides": [1, 1], "padding": "same", "data_format": "channels_last", "dilation_rate": [1, 1], "activation": "linear", "use_bias": false, "kernel_initializer": {"class_name": "GlorotUniform", "config": {"seed": null, "dtype": "float32"}}, "bias_initializer": {"class_name": "Zeros", "config": {"dtype": "float32"}}, "kernel_regularizer": null, "bias_regularizer": null, "activity_regularizer": null, "kernel_constraint": null, "bias_constraint": null}, "inbound_nodes": [[["expanded_conv_project_BN", 0, 0, {}]]]}, {"name": "expanded_conv_1_expand_BN", "class_name": "BatchNormalization", "config": {"name": "expanded_conv_1_expand_BN", "trainable": true, "dtype": "float32", "axis": [3], "momentum": 0.999, "epsilon": 0.001, "center": true, "scale": true, "beta_initializer": {"class_name": "Zeros", "config": {"dtype": "float32"}}, "gamma_initializer": {"class_name": "Ones", "config": {"dtype": "float32"}}, "moving_mean_initializer": {"class_name": "Zeros", "config": {"dtype": "float32"}}, "moving_variance_initializer": {"class_name": "Ones", "config": {"dtype": "float32"}}, "beta_regularizer": null, "gamma_regularizer": null, "beta_constraint": null, "gamma_constraint": null}, "inbound_nodes": [[["expanded_conv_1_expand", 0, 0, {}]]]}, {"name": "expanded_conv_1_expand_relu", "class_name": "Activation", "config": {"name": "expanded_conv_1_expand_relu", "trainable": true, "dtype": "float32", "activation": "relu6"}, "inbound_nodes": [[["expanded_conv_1_expand_BN", 0, 0, {}]]]}, {"name": "expanded_conv_1_depthwise", "class_name": "DepthwiseConv2D", "config": {"name": "expanded_conv_1_depthwise", "trainable": true, "dtype": "float32", "kernel_size": [3, 3], "strides": [2, 2], "padding": "same", "data_format": "channels_last", "dilation_rate": [1, 1], "activation": "linear", "use_bias": false, "bias_initializer": {"class_name": "Zeros", "config": {"dtype": "float32"}}, "bias_regularizer": null, "activity_regularizer": null, "bias_constraint": null, "depth_multiplier": 1, "depthwise_initializer": {"class_name": "GlorotUniform", "config": {"seed": null, "dtype": "float32"}}, "depthwise_regularizer": null, "depthwise_constraint": null}, "inbound_nodes": [[["expanded_conv_1_expand_relu", 0, 0, {}]]]}, {"name": "expanded_conv_1_depthwise_BN", "class_name": "BatchNormalization", "config": {"name": "expanded_conv_1_depthwise_BN", "trainable": true, "dtype": "float32", "axis": [3], "momentum": 0.999, "epsilon": 0.001, "center": true, "scale": true, "beta_initializer": {"class_name": "Zeros", "config": {"dtype": "float32"}}, "gamma_initializer": {"class_name": "Ones", "config": {"dtype": "float32"}}, "moving_mean_initializer": {"class_name": "Zeros", "config": {"dtype": "float32"}}, "moving_variance_initializer": {"class_name": "Ones", "config": {"dtype": "float32"}}, "beta_regularizer": null, "gamma_regularizer": null, "beta_constraint": null, "gamma_constraint": null}, "inbound_nodes": [[["expanded_conv_1_depthwise", 0, 0, {}]]]}, {"name": "expanded_conv_1_depthwise_relu", "class_name": "Activation", "config": {"name": "expanded_conv_1_depthwise_relu", "trainable": true, "dtype": "float32", "activation": "relu6"}, "inbound_nodes": [[["expanded_conv_1_depthwise_BN", 0, 0, {}]]]}, {"name": "expanded_conv_1_project", "class_name": "Conv2D", "config": {"name": "expanded_conv_1_project", "trainable": true, "dtype": "float32", "filters": 24, "kernel_size": [1, 1], "strides": [1, 1], "padding": "same", "data_format": "channels_last", "dilation_rate": [1, 1], "activation": "linear", "use_bias": false, "kernel_initializer": {"class_name": "GlorotUniform", "config": {"seed": null, "dtype": "float32"}}, "bias_initializer": {"class_name": "Zeros", "config": {"dtype": "float32"}}, "kernel_regularizer": null, "bias_regularizer": null, "activity_regularizer": null, "kernel_constraint": null, "bias_constraint": null}, "inbound_nodes": [[["expanded_conv_1_depthwise_relu", 0, 0, {}]]]}, {"name": "expanded_conv_1_project_BN", "class_name": "BatchNormalization", "config": {"name": "expanded_conv_1_project_BN", "trainable": true, "dtype": "float32", "axis": [3], "momentum": 0.999, "epsilon": 0.001, "center": true, "scale": true, "beta_initializer": {"class_name": "Zeros", "config": {"dtype": "float32"}}, "gamma_initializer": {"class_name": "Ones", "config": {"dtype": "float32"}}, "moving_mean_initializer": {"class_name": "Zeros", "config": {"dtype": "float32"}}, "moving_variance_initializer": {"class_name": "Ones", "config": {"dtype": "float32"}}, "beta_regularizer": null, "gamma_regularizer": null, "beta_constraint": null, "gamma_constraint": null}, "inbound_nodes": [[["expanded_conv_1_project", 0, 0, {}]]]}, {"name": "expanded_conv_2_expand", "class_name": "Conv2D", "config": {"name": "expanded_conv_2_expand", "trainable": true, "dtype": "float32", "filters": 144, "kernel_size": [1, 1], "strides": [1, 1], "padding": "same", "data_format": "channels_last", "dilation_rate": [1, 1], "activation": "linear", "use_bias": false, "kernel_initializer": {"class_name": "GlorotUniform", "config": {"seed": null, "dtype": "float32"}}, "bias_initializer": {"class_name": "Zeros", "config": {"dtype": "float32"}}, "kernel_regularizer": null, "bias_regularizer": null, "activity_regularizer": null, "kernel_constraint": null, "bias_constraint": null}, "inbound_nodes": [[["expanded_conv_1_project_BN", 0, 0, {}]]]}, {"name": "expanded_conv_2_expand_BN", "class_name": "BatchNormalization", "config": {"name": "expanded_conv_2_expand_BN", "trainable": true, "dtype": "float32", "axis": [3], "momentum": 0.999, "epsilon": 0.001, "center": true, "scale": true, "beta_initializer": {"class_name": "Zeros", "config": {"dtype": "float32"}}, "gamma_initializer": {"class_name": "Ones", "config": {"dtype": "float32"}}, "moving_mean_initializer": {"class_name": "Zeros", "config": {"dtype": "float32"}}, "moving_variance_initializer": {"class_name": "Ones", "config": {"dtype": "float32"}}, "beta_regularizer": null, "gamma_regularizer": null, "beta_constraint": null, "gamma_constraint": null}, "inbound_nodes": [[["expanded_conv_2_expand", 0, 0, {}]]]}, {"name": "expanded_conv_2_expand_relu", "class_name": "Activation", "config": {"name": "expanded_conv_2_expand_relu", "trainable": true, "dtype": "float32", "activation": "relu6"}, "inbound_nodes": [[["expanded_conv_2_expand_BN", 0, 0, {}]]]}, {"name": "expanded_conv_2_depthwise", "class_name": "DepthwiseConv2D", "config": {"name": "expanded_conv_2_depthwise", "trainable": true, "dtype": "float32", "kernel_size": [3, 3], "strides": [1, 1], "padding": "same", "data_format": "channels_last", "dilation_rate": [1, 1], "activation": "linear", "use_bias": false, "bias_initializer": {"class_name": "Zeros", "config": {"dtype": "float32"}}, "bias_regularizer": null, "activity_regularizer": null, "bias_constraint": null, "depth_multiplier": 1, "depthwise_initializer": {"class_name": "GlorotUniform", "config": {"seed": null, "dtype": "float32"}}, "depthwise_regularizer": null, "depthwise_constraint": null}, "inbound_nodes": [[["expanded_conv_2_expand_relu", 0, 0, {}]]]}, {"name": "expanded_conv_2_depthwise_BN", "class_name": "BatchNormalization", "config": {"name": "expanded_conv_2_depthwise_BN", "trainable": true, "dtype": "float32", "axis": [3], "momentum": 0.999, "epsilon": 0.001, "center": true, "scale": true, "beta_initializer": {"class_name": "Zeros", "config": {"dtype": "float32"}}, "gamma_initializer": {"class_name": "Ones", "config": {"dtype": "float32"}}, "moving_mean_initializer": {"class_name": "Zeros", "config": {"dtype": "float32"}}, "moving_variance_initializer": {"class_name": "Ones", "config": {"dtype": "float32"}}, "beta_regularizer": null, "gamma_regularizer": null, "beta_constraint": null, "gamma_constraint": null}, "inbound_nodes": [[["expanded_conv_2_depthwise", 0, 0, {}]]]}, {"name": "expanded_conv_2_depthwise_relu", "class_name": "Activation", "config": {"name": "expanded_conv_2_depthwise_relu", "trainable": true, "dtype": "float32", "activation": "relu6"}, "inbound_nodes": [[["expanded_conv_2_depthwise_BN", 0, 0, {}]]]}, {"name": "expanded_conv_2_project", "class_name": "Conv2D", "config": {"name": "expanded_conv_2_project", "trainable": true, "dtype": "float32", "filters": 24, "kernel_size": [1, 1], "strides": [1, 1], "padding": "same", "data_format": "channels_last", "dilation_rate": [1, 1], "activation": "linear", "use_bias": false, "kernel_initializer": {"class_name": "GlorotUniform", "config": {"seed": null, "dtype": "float32"}}, "bias_initializer": {"class_name": "Zeros", "config": {"dtype": "float32"}}, "kernel_regularizer": null, "bias_regularizer": null, "activity_regularizer": null, "kernel_constraint": null, "bias_constraint": null}, "inbound_nodes": [[["expanded_conv_2_depthwise_relu", 0, 0, {}]]]}, {"name": "expanded_conv_2_project_BN", "class_name": "BatchNormalization", "config": {"name": "expanded_conv_2_project_BN", "trainable": true, "dtype": "float32", "axis": [3], "momentum": 0.999, "epsilon": 0.001, "center": true, "scale": true, "beta_initializer": {"class_name": "Zeros", "config": {"dtype": "float32"}}, "gamma_initializer": {"class_name": "Ones", "config": {"dtype": "float32"}}, "moving_mean_initializer": {"class_name": "Zeros", "config": {"dtype": "float32"}}, "moving_variance_initializer": {"class_name": "Ones", "config": {"dtype": "float32"}}, "beta_regularizer": null, "gamma_regularizer": null, "beta_constraint": null, "gamma_constraint": null}, "inbound_nodes": [[["expanded_conv_2_project", 0, 0, {}]]]}, {"name": "expanded_conv_2_add", "class_name": "Add", "config": {"name": "expanded_conv_2_add", "trainable": true, "dtype": "float32"}, "inbound_nodes": [[["expanded_conv_1_project_BN", 0, 0, {}], ["expanded_conv_2_project_BN", 0, 0, {}]]]}, {"name": "expanded_conv_3_expand", "class_name": "Conv2D", "config": {"name": "expanded_conv_3_expand", "trainable": true, "dtype": "float32", "filters": 144, "kernel_size": [1, 1], "strides": [1, 1], "padding": "same", "data_format": "channels_last", "dilation_rate": [1, 1], "activation": "linear", "use_bias": false, "kernel_initializer": {"class_name": "GlorotUniform", "config": {"seed": null, "dtype": "float32"}}, "bias_initializer": {"class_name": "Zeros", "config": {"dtype": "float32"}}, "kernel_regularizer": null, "bias_regularizer": null, "activity_regularizer": null, "kernel_constraint": null, "bias_constraint": null}, "inbound_nodes": [[["expanded_conv_2_add", 0, 0, {}]]]}, {"name": "expanded_conv_3_expand_BN", "class_name": "BatchNormalization", "config": {"name": "expanded_conv_3_expand_BN", "trainable": true, "dtype": "float32", "axis": [3], "momentum": 0.999, "epsilon": 0.001, "center": true, "scale": true, "beta_initializer": {"class_name": "Zeros", "config": {"dtype": "float32"}}, "gamma_initializer": {"class_name": "Ones", "config": {"dtype": "float32"}}, "moving_mean_initializer": {"class_name": "Zeros", "config": {"dtype": "float32"}}, "moving_variance_initializer": {"class_name": "Ones", "config": {"dtype": "float32"}}, "beta_regularizer": null, "gamma_regularizer": null, "beta_constraint": null, "gamma_constraint": null}, "inbound_nodes": [[["expanded_conv_3_expand", 0, 0, {}]]]}, {"name": "expanded_conv_3_expand_relu", "class_name": "Activation", "config": {"name": "expanded_conv_3_expand_relu", "trainable": true, "dtype": "float32", "activation": "relu6"}, "inbound_nodes": [[["expanded_conv_3_expand_BN", 0, 0, {}]]]}, {"name": "expanded_conv_3_depthwise", "class_name": "DepthwiseConv2D", "config": {"name": "expanded_conv_3_depthwise", "trainable": true, "dtype": "float32", "kernel_size": [3, 3], "strides": [2, 2], "padding": "same", "data_format": "channels_last", "dilation_rate": [1, 1], "activation": "linear", "use_bias": false, "bias_initializer": {"class_name": "Zeros", "config": {"dtype": "float32"}}, "bias_regularizer": null, "activity_regularizer": null, "bias_constraint": null, "depth_multiplier": 1, "depthwise_initializer": {"class_name": "GlorotUniform", "config": {"seed": null, "dtype": "float32"}}, "depthwise_regularizer": null, "depthwise_constraint": null}, "inbound_nodes": [[["expanded_conv_3_expand_relu", 0, 0, {}]]]}, {"name": "expanded_conv_3_depthwise_BN", "class_name": "BatchNormalization", "config": {"name": "expanded_conv_3_depthwise_BN", "trainable": true, "dtype": "float32", "axis": [3], "momentum": 0.999, "epsilon": 0.001, "center": true, "scale": true, "beta_initializer": {"class_name": "Zeros", "config": {"dtype": "float32"}}, "gamma_initializer": {"class_name": "Ones", "config": {"dtype": "float32"}}, "moving_mean_initializer": {"class_name": "Zeros", "config": {"dtype": "float32"}}, "moving_variance_initializer": {"class_name": "Ones", "config": {"dtype": "float32"}}, "beta_regularizer": null, "gamma_regularizer": null, "beta_constraint": null, "gamma_constraint": null}, "inbound_nodes": [[["expanded_conv_3_depthwise", 0, 0, {}]]]}, {"name": "expanded_conv_3_depthwise_relu", "class_name": "Activation", "config": {"name": "expanded_conv_3_depthwise_relu", "trainable": true, "dtype": "float32", "activation": "relu6"}, "inbound_nodes": [[["expanded_conv_3_depthwise_BN", 0, 0, {}]]]}, {"name": "expanded_conv_3_project", "class_name": "Conv2D", "config": {"name": "expanded_conv_3_project", "trainable": true, "dtype": "float32", "filters": 32, "kernel_size": [1, 1], "strides": [1, 1], "padding": "same", "data_format": "channels_last", "dilation_rate": [1, 1], "activation": "linear", "use_bias": false, "kernel_initializer": {"class_name": "GlorotUniform", "config": {"seed": null, "dtype": "float32"}}, "bias_initializer": {"class_name": "Zeros", "config": {"dtype": "float32"}}, "kernel_regularizer": null, "bias_regularizer": null, "activity_regularizer": null, "kernel_constraint": null, "bias_constraint": null}, "inbound_nodes": [[["expanded_conv_3_depthwise_relu", 0, 0, {}]]]}, {"name": "expanded_conv_3_project_BN", "class_name": "BatchNormalization", "config": {"name": "expanded_conv_3_project_BN", "trainable": true, "dtype": "float32", "axis": [3], "momentum": 0.999, "epsilon": 0.001, "center": true, "scale": true, "beta_initializer": {"class_name": "Zeros", "config": {"dtype": "float32"}}, "gamma_initializer": {"class_name": "Ones", "config": {"dtype": "float32"}}, "moving_mean_initializer": {"class_name": "Zeros", "config": {"dtype": "float32"}}, "moving_variance_initializer": {"class_name": "Ones", "config": {"dtype": "float32"}}, "beta_regularizer": null, "gamma_regularizer": null, "beta_constraint": null, "gamma_constraint": null}, "inbound_nodes": [[["expanded_conv_3_project", 0, 0, {}]]]}, {"name": "expanded_conv_4_expand", "class_name": "Conv2D", "config": {"name": "expanded_conv_4_expand", "trainable": true, "dtype": "float32", "filters": 192, "kernel_size": [1, 1], "strides": [1, 1], "padding": "same", "data_format": "channels_last", "dilation_rate": [1, 1], "activation": "linear", "use_bias": false, "kernel_initializer": {"class_name": "GlorotUniform", "config": {"seed": null, "dtype": "float32"}}, "bias_initializer": {"class_name": "Zeros", "config": {"dtype": "float32"}}, "kernel_regularizer": null, "bias_regularizer": null, "activity_regularizer": null, "kernel_constraint": null, "bias_constraint": null}, "inbound_nodes": [[["expanded_conv_3_project_BN", 0, 0, {}]]]}, {"name": "expanded_conv_4_expand_BN", "class_name": "BatchNormalization", "config": {"name": "expanded_conv_4_expand_BN", "trainable": true, "dtype": "float32", "axis": [3], "momentum": 0.999, "epsilon": 0.001, "center": true, "scale": true, "beta_initializer": {"class_name": "Zeros", "config": {"dtype": "float32"}}, "gamma_initializer": {"class_name": "Ones", "config": {"dtype": "float32"}}, "moving_mean_initializer": {"class_name": "Zeros", "config": {"dtype": "float32"}}, "moving_variance_initializer": {"class_name": "Ones", "config": {"dtype": "float32"}}, "beta_regularizer": null, "gamma_regularizer": null, "beta_constraint": null, "gamma_constraint": null}, "inbound_nodes": [[["expanded_conv_4_expand", 0, 0, {}]]]}, {"name": "expanded_conv_4_expand_relu", "class_name": "Activation", "config": {"name": "expanded_conv_4_expand_relu", "trainable": true, "dtype": "float32", "activation": "relu6"}, "inbound_nodes": [[["expanded_conv_4_expand_BN", 0, 0, {}]]]}, {"name": "expanded_conv_4_depthwise", "class_name": "DepthwiseConv2D", "config": {"name": "expanded_conv_4_depthwise", "trainable": true, "dtype": "float32", "kernel_size": [3, 3], "strides": [1, 1], "padding": "same", "data_format": "channels_last", "dilation_rate": [1, 1], "activation": "linear", "use_bias": false, "bias_initializer": {"class_name": "Zeros", "config": {"dtype": "float32"}}, "bias_regularizer": null, "activity_regularizer": null, "bias_constraint": null, "depth_multiplier": 1, "depthwise_initializer": {"class_name": "GlorotUniform", "config": {"seed": null, "dtype": "float32"}}, "depthwise_regularizer": null, "depthwise_constraint": null}, "inbound_nodes": [[["expanded_conv_4_expand_relu", 0, 0, {}]]]}, {"name": "expanded_conv_4_depthwise_BN", "class_name": "BatchNormalization", "config": {"name": "expanded_conv_4_depthwise_BN", "trainable": true, "dtype": "float32", "axis": [3], "momentum": 0.999, "epsilon": 0.001, "center": true, "scale": true, "beta_initializer": {"class_name": "Zeros", "config": {"dtype": "float32"}}, "gamma_initializer": {"class_name": "Ones", "config": {"dtype": "float32"}}, "moving_mean_initializer": {"class_name": "Zeros", "config": {"dtype": "float32"}}, "moving_variance_initializer": {"class_name": "Ones", "config": {"dtype": "float32"}}, "beta_regularizer": null, "gamma_regularizer": null, "beta_constraint": null, "gamma_constraint": null}, "inbound_nodes": [[["expanded_conv_4_depthwise", 0, 0, {}]]]}, {"name": "expanded_conv_4_depthwise_relu", "class_name": "Activation", "config": {"name": "expanded_conv_4_depthwise_relu", "trainable": true, "dtype": "float32", "activation": "relu6"}, "inbound_nodes": [[["expanded_conv_4_depthwise_BN", 0, 0, {}]]]}, {"name": "expanded_conv_4_project", "class_name": "Conv2D", "config": {"name": "expanded_conv_4_project", "trainable": true, "dtype": "float32", "filters": 32, "kernel_size": [1, 1], "strides": [1, 1], "padding": "same", "data_format": "channels_last", "dilation_rate": [1, 1], "activation": "linear", "use_bias": false, "kernel_initializer": {"class_name": "GlorotUniform", "config": {"seed": null, "dtype": "float32"}}, "bias_initializer": {"class_name": "Zeros", "config": {"dtype": "float32"}}, "kernel_regularizer": null, "bias_regularizer": null, "activity_regularizer": null, "kernel_constraint": null, "bias_constraint": null}, "inbound_nodes": [[["expanded_conv_4_depthwise_relu", 0, 0, {}]]]}, {"name": "expanded_conv_4_project_BN", "class_name": "BatchNormalization", "config": {"name": "expanded_conv_4_project_BN", "trainable": true, "dtype": "float32", "axis": [3], "momentum": 0.999, "epsilon": 0.001, "center": true, "scale": true, "beta_initializer": {"class_name": "Zeros", "config": {"dtype": "float32"}}, "gamma_initializer": {"class_name": "Ones", "config": {"dtype": "float32"}}, "moving_mean_initializer": {"class_name": "Zeros", "config": {"dtype": "float32"}}, "moving_variance_initializer": {"class_name": "Ones", "config": {"dtype": "float32"}}, "beta_regularizer": null, "gamma_regularizer": null, "beta_constraint": null, "gamma_constraint": null}, "inbound_nodes": [[["expanded_conv_4_project", 0, 0, {}]]]}, {"name": "expanded_conv_4_add", "class_name": "Add", "config": {"name": "expanded_conv_4_add", "trainable": true, "dtype": "float32"}, "inbound_nodes": [[["expanded_conv_3_project_BN", 0, 0, {}], ["expanded_conv_4_project_BN", 0, 0, {}]]]}, {"name": "expanded_conv_5_expand", "class_name": "Conv2D", "config": {"name": "expanded_conv_5_expand", "trainable": true, "dtype": "float32", "filters": 192, "kernel_size": [1, 1], "strides": [1, 1], "padding": "same", "data_format": "channels_last", "dilation_rate": [1, 1], "activation": "linear", "use_bias": false, "kernel_initializer": {"class_name": "GlorotUniform", "config": {"seed": null, "dtype": "float32"}}, "bias_initializer": {"class_name": "Zeros", "config": {"dtype": "float32"}}, "kernel_regularizer": null, "bias_regularizer": null, "activity_regularizer": null, "kernel_constraint": null, "bias_constraint": null}, "inbound_nodes": [[["expanded_conv_4_add", 0, 0, {}]]]}, {"name": "expanded_conv_5_expand_BN", "class_name": "BatchNormalization", "config": {"name": "expanded_conv_5_expand_BN", "trainable": true, "dtype": "float32", "axis": [3], "momentum": 0.999, "epsilon": 0.001, "center": true, "scale": true, "beta_initializer": {"class_name": "Zeros", "config": {"dtype": "float32"}}, "gamma_initializer": {"class_name": "Ones", "config": {"dtype": "float32"}}, "moving_mean_initializer": {"class_name": "Zeros", "config": {"dtype": "float32"}}, "moving_variance_initializer": {"class_name": "Ones", "config": {"dtype": "float32"}}, "beta_regularizer": null, "gamma_regularizer": null, "beta_constraint": null, "gamma_constraint": null}, "inbound_nodes": [[["expanded_conv_5_expand", 0, 0, {}]]]}, {"name": "expanded_conv_5_expand_relu", "class_name": "Activation", "config": {"name": "expanded_conv_5_expand_relu", "trainable": true, "dtype": "float32", "activation": "relu6"}, "inbound_nodes": [[["expanded_conv_5_expand_BN", 0, 0, {}]]]}, {"name": "expanded_conv_5_depthwise", "class_name": "DepthwiseConv2D", "config": {"name": "expanded_conv_5_depthwise", "trainable": true, "dtype": "float32", "kernel_size": [3, 3], "strides": [1, 1], "padding": "same", "data_format": "channels_last", "dilation_rate": [1, 1], "activation": "linear", "use_bias": false, "bias_initializer": {"class_name": "Zeros", "config": {"dtype": "float32"}}, "bias_regularizer": null, "activity_regularizer": null, "bias_constraint": null, "depth_multiplier": 1, "depthwise_initializer": {"class_name": "GlorotUniform", "config": {"seed": null, "dtype": "float32"}}, "depthwise_regularizer": null, "depthwise_constraint": null}, "inbound_nodes": [[["expanded_conv_5_expand_relu", 0, 0, {}]]]}, {"name": "expanded_conv_5_depthwise_BN", "class_name": "BatchNormalization", "config": {"name": "expanded_conv_5_depthwise_BN", "trainable": true, "dtype": "float32", "axis": [3], "momentum": 0.999, "epsilon": 0.001, "center": true, "scale": true, "beta_initializer": {"class_name": "Zeros", "config": {"dtype": "float32"}}, "gamma_initializer": {"class_name": "Ones", "config": {"dtype": "float32"}}, "moving_mean_initializer": {"class_name": "Zeros", "config": {"dtype": "float32"}}, "moving_variance_initializer": {"class_name": "Ones", "config": {"dtype": "float32"}}, "beta_regularizer": null, "gamma_regularizer": null, "beta_constraint": null, "gamma_constraint": null}, "inbound_nodes": [[["expanded_conv_5_depthwise", 0, 0, {}]]]}, {"name": "expanded_conv_5_depthwise_relu", "class_name": "Activation", "config": {"name": "expanded_conv_5_depthwise_relu", "trainable": true, "dtype": "float32", "activation": "relu6"}, "inbound_nodes": [[["expanded_conv_5_depthwise_BN", 0, 0, {}]]]}, {"name": "expanded_conv_5_project", "class_name": "Conv2D", "config": {"name": "expanded_conv_5_project", "trainable": true, "dtype": "float32", "filters": 32, "kernel_size": [1, 1], "strides": [1, 1], "padding": "same", "data_format": "channels_last", "dilation_rate": [1, 1], "activation": "linear", "use_bias": false, "kernel_initializer": {"class_name": "GlorotUniform", "config": {"seed": null, "dtype": "float32"}}, "bias_initializer": {"class_name": "Zeros", "config": {"dtype": "float32"}}, "kernel_regularizer": null, "bias_regularizer": null, "activity_regularizer": null, "kernel_constraint": null, "bias_constraint": null}, "inbound_nodes": [[["expanded_conv_5_depthwise_relu", 0, 0, {}]]]}, {"name": "expanded_conv_5_project_BN", "class_name": "BatchNormalization", "config": {"name": "expanded_conv_5_project_BN", "trainable": true, "dtype": "float32", "axis": [3], "momentum": 0.999, "epsilon": 0.001, "center": true, "scale": true, "beta_initializer": {"class_name": "Zeros", "config": {"dtype": "float32"}}, "gamma_initializer": {"class_name": "Ones", "config": {"dtype": "float32"}}, "moving_mean_initializer": {"class_name": "Zeros", "config": {"dtype": "float32"}}, "moving_variance_initializer": {"class_name": "Ones", "config": {"dtype": "float32"}}, "beta_regularizer": null, "gamma_regularizer": null, "beta_constraint": null, "gamma_constraint": null}, "inbound_nodes": [[["expanded_conv_5_project", 0, 0, {}]]]}, {"name": "expanded_conv_5_add", "class_name": "Add", "config": {"name": "expanded_conv_5_add", "trainable": true, "dtype": "float32"}, "inbound_nodes": [[["expanded_conv_4_add", 0, 0, {}], ["expanded_conv_5_project_BN", 0, 0, {}]]]}, {"name": "expanded_conv_6_expand", "class_name": "Conv2D", "config": {"name": "expanded_conv_6_expand", "trainable": true, "dtype": "float32", "filters": 192, "kernel_size": [1, 1], "strides": [1, 1], "padding": "same", "data_format": "channels_last", "dilation_rate": [1, 1], "activation": "linear", "use_bias": false, "kernel_initializer": {"class_name": "GlorotUniform", "config": {"seed": null, "dtype": "float32"}}, "bias_initializer": {"class_name": "Zeros", "config": {"dtype": "float32"}}, "kernel_regularizer": null, "bias_regularizer": null, "activity_regularizer": null, "kernel_constraint": null, "bias_constraint": null}, "inbound_nodes": [[["expanded_conv_5_add", 0, 0, {}]]]}, {"name": "expanded_conv_6_expand_BN", "class_name": "BatchNormalization", "config": {"name": "expanded_conv_6_expand_BN", "trainable": true, "dtype": "float32", "axis": [3], "momentum": 0.999, "epsilon": 0.001, "center": true, "scale": true, "beta_initializer": {"class_name": "Zeros", "config": {"dtype": "float32"}}, "gamma_initializer": {"class_name": "Ones", "config": {"dtype": "float32"}}, "moving_mean_initializer": {"class_name": "Zeros", "config": {"dtype": "float32"}}, "moving_variance_initializer": {"class_name": "Ones", "config": {"dtype": "float32"}}, "beta_regularizer": null, "gamma_regularizer": null, "beta_constraint": null, "gamma_constraint": null}, "inbound_nodes": [[["expanded_conv_6_expand", 0, 0, {}]]]}, {"name": "expanded_conv_6_expand_relu", "class_name": "Activation", "config": {"name": "expanded_conv_6_expand_relu", "trainable": true, "dtype": "float32", "activation": "relu6"}, "inbound_nodes": [[["expanded_conv_6_expand_BN", 0, 0, {}]]]}, {"name": "expanded_conv_6_depthwise", "class_name": "DepthwiseConv2D", "config": {"name": "expanded_conv_6_depthwise", "trainable": true, "dtype": "float32", "kernel_size": [3, 3], "strides": [1, 1], "padding": "same", "data_format": "channels_last", "dilation_rate": [1, 1], "activation": "linear", "use_bias": false, "bias_initializer": {"class_name": "Zeros", "config": {"dtype": "float32"}}, "bias_regularizer": null, "activity_regularizer": null, "bias_constraint": null, "depth_multiplier": 1, "depthwise_initializer": {"class_name": "GlorotUniform", "config": {"seed": null, "dtype": "float32"}}, "depthwise_regularizer": null, "depthwise_constraint": null}, "inbound_nodes": [[["expanded_conv_6_expand_relu", 0, 0, {}]]]}, {"name": "expanded_conv_6_depthwise_BN", "class_name": "BatchNormalization", "config": {"name": "expanded_conv_6_depthwise_BN", "trainable": true, "dtype": "float32", "axis": [3], "momentum": 0.999, "epsilon": 0.001, "center": true, "scale": true, "beta_initializer": {"class_name": "Zeros", "config": {"dtype": "float32"}}, "gamma_initializer": {"class_name": "Ones", "config": {"dtype": "float32"}}, "moving_mean_initializer": {"class_name": "Zeros", "config": {"dtype": "float32"}}, "moving_variance_initializer": {"class_name": "Ones", "config": {"dtype": "float32"}}, "beta_regularizer": null, "gamma_regularizer": null, "beta_constraint": null, "gamma_constraint": null}, "inbound_nodes": [[["expanded_conv_6_depthwise", 0, 0, {}]]]}, {"name": "expanded_conv_6_depthwise_relu", "class_name": "Activation", "config": {"name": "expanded_conv_6_depthwise_relu", "trainable": true, "dtype": "float32", "activation": "relu6"}, "inbound_nodes": [[["expanded_conv_6_depthwise_BN", 0, 0, {}]]]}, {"name": "expanded_conv_6_project", "class_name": "Conv2D", "config": {"name": "expanded_conv_6_project", "trainable": true, "dtype": "float32", "filters": 64, "kernel_size": [1, 1], "strides": [1, 1], "padding": "same", "data_format": "channels_last", "dilation_rate": [1, 1], "activation": "linear", "use_bias": false, "kernel_initializer": {"class_name": "GlorotUniform", "config": {"seed": null, "dtype": "float32"}}, "bias_initializer": {"class_name": "Zeros", "config": {"dtype": "float32"}}, "kernel_regularizer": null, "bias_regularizer": null, "activity_regularizer": null, "kernel_constraint": null, "bias_constraint": null}, "inbound_nodes": [[["expanded_conv_6_depthwise_relu", 0, 0, {}]]]}, {"name": "expanded_conv_6_project_BN", "class_name": "BatchNormalization", "config": {"name": "expanded_conv_6_project_BN", "trainable": true, "dtype": "float32", "axis": [3], "momentum": 0.999, "epsilon": 0.001, "center": true, "scale": true, "beta_initializer": {"class_name": "Zeros", "config": {"dtype": "float32"}}, "gamma_initializer": {"class_name": "Ones", "config": {"dtype": "float32"}}, "moving_mean_initializer": {"class_name": "Zeros", "config": {"dtype": "float32"}}, "moving_variance_initializer": {"class_name": "Ones", "config": {"dtype": "float32"}}, "beta_regularizer": null, "gamma_regularizer": null, "beta_constraint": null, "gamma_constraint": null}, "inbound_nodes": [[["expanded_conv_6_project", 0, 0, {}]]]}, {"name": "expanded_conv_7_expand", "class_name": "Conv2D", "config": {"name": "expanded_conv_7_expand", "trainable": true, "dtype": "float32", "filters": 384, "kernel_size": [1, 1], "strides": [1, 1], "padding": "same", "data_format": "channels_last", "dilation_rate": [1, 1], "activation": "linear", "use_bias": false, "kernel_initializer": {"class_name": "GlorotUniform", "config": {"seed": null, "dtype": "float32"}}, "bias_initializer": {"class_name": "Zeros", "config": {"dtype": "float32"}}, "kernel_regularizer": null, "bias_regularizer": null, "activity_regularizer": null, "kernel_constraint": null, "bias_constraint": null}, "inbound_nodes": [[["expanded_conv_6_project_BN", 0, 0, {}]]]}, {"name": "expanded_conv_7_expand_BN", "class_name": "BatchNormalization", "config": {"name": "expanded_conv_7_expand_BN", "trainable": true, "dtype": "float32", "axis": [3], "momentum": 0.999, "epsilon": 0.001, "center": true, "scale": true, "beta_initializer": {"class_name": "Zeros", "config": {"dtype": "float32"}}, "gamma_initializer": {"class_name": "Ones", "config": {"dtype": "float32"}}, "moving_mean_initializer": {"class_name": "Zeros", "config": {"dtype": "float32"}}, "moving_variance_initializer": {"class_name": "Ones", "config": {"dtype": "float32"}}, "beta_regularizer": null, "gamma_regularizer": null, "beta_constraint": null, "gamma_constraint": null}, "inbound_nodes": [[["expanded_conv_7_expand", 0, 0, {}]]]}, {"name": "expanded_conv_7_expand_relu", "class_name": "Activation", "config": {"name": "expanded_conv_7_expand_relu", "trainable": true, "dtype": "float32", "activation": "relu6"}, "inbound_nodes": [[["expanded_conv_7_expand_BN", 0, 0, {}]]]}, {"name": "expanded_conv_7_depthwise", "class_name": "DepthwiseConv2D", "config": {"name": "expanded_conv_7_depthwise", "trainable": true, "dtype": "float32", "kernel_size": [3, 3], "strides": [1, 1], "padding": "same", "data_format": "channels_last", "dilation_rate": [2, 2], "activation": "linear", "use_bias": false, "bias_initializer": {"class_name": "Zeros", "config": {"dtype": "float32"}}, "bias_regularizer": null, "activity_regularizer": null, "bias_constraint": null, "depth_multiplier": 1, "depthwise_initializer": {"class_name": "GlorotUniform", "config": {"seed": null, "dtype": "float32"}}, "depthwise_regularizer": null, "depthwise_constraint": null}, "inbound_nodes": [[["expanded_conv_7_expand_relu", 0, 0, {}]]]}, {"name": "expanded_conv_7_depthwise_BN", "class_name": "BatchNormalization", "config": {"name": "expanded_conv_7_depthwise_BN", "trainable": true, "dtype": "float32", "axis": [3], "momentum": 0.999, "epsilon": 0.001, "center": true, "scale": true, "beta_initializer": {"class_name": "Zeros", "config": {"dtype": "float32"}}, "gamma_initializer": {"class_name": "Ones", "config": {"dtype": "float32"}}, "moving_mean_initializer": {"class_name": "Zeros", "config": {"dtype": "float32"}}, "moving_variance_initializer": {"class_name": "Ones", "config": {"dtype": "float32"}}, "beta_regularizer": null, "gamma_regularizer": null, "beta_constraint": null, "gamma_constraint": null}, "inbound_nodes": [[["expanded_conv_7_depthwise", 0, 0, {}]]]}, {"name": "expanded_conv_7_depthwise_relu", "class_name": "Activation", "config": {"name": "expanded_conv_7_depthwise_relu", "trainable": true, "dtype": "float32", "activation": "relu6"}, "inbound_nodes": [[["expanded_conv_7_depthwise_BN", 0, 0, {}]]]}, {"name": "expanded_conv_7_project", "class_name": "Conv2D", "config": {"name": "expanded_conv_7_project", "trainable": true, "dtype": "float32", "filters": 64, "kernel_size": [1, 1], "strides": [1, 1], "padding": "same", "data_format": "channels_last", "dilation_rate": [1, 1], "activation": "linear", "use_bias": false, "kernel_initializer": {"class_name": "GlorotUniform", "config": {"seed": null, "dtype": "float32"}}, "bias_initializer": {"class_name": "Zeros", "config": {"dtype": "float32"}}, "kernel_regularizer": null, "bias_regularizer": null, "activity_regularizer": null, "kernel_constraint": null, "bias_constraint": null}, "inbound_nodes": [[["expanded_conv_7_depthwise_relu", 0, 0, {}]]]}, {"name": "expanded_conv_7_project_BN", "class_name": "BatchNormalization", "config": {"name": "expanded_conv_7_project_BN", "trainable": true, "dtype": "float32", "axis": [3], "momentum": 0.999, "epsilon": 0.001, "center": true, "scale": true, "beta_initializer": {"class_name": "Zeros", "config": {"dtype": "float32"}}, "gamma_initializer": {"class_name": "Ones", "config": {"dtype": "float32"}}, "moving_mean_initializer": {"class_name": "Zeros", "config": {"dtype": "float32"}}, "moving_variance_initializer": {"class_name": "Ones", "config": {"dtype": "float32"}}, "beta_regularizer": null, "gamma_regularizer": null, "beta_constraint": null, "gamma_constraint": null}, "inbound_nodes": [[["expanded_conv_7_project", 0, 0, {}]]]}, {"name": "expanded_conv_7_add", "class_name": "Add", "config": {"name": "expanded_conv_7_add", "trainable": true, "dtype": "float32"}, "inbound_nodes": [[["expanded_conv_6_project_BN", 0, 0, {}], ["expanded_conv_7_project_BN", 0, 0, {}]]]}, {"name": "expanded_conv_8_expand", "class_name": "Conv2D", "config": {"name": "expanded_conv_8_expand", "trainable": true, "dtype": "float32", "filters": 384, "kernel_size": [1, 1], "strides": [1, 1], "padding": "same", "data_format": "channels_last", "dilation_rate": [1, 1], "activation": "linear", "use_bias": false, "kernel_initializer": {"class_name": "GlorotUniform", "config": {"seed": null, "dtype": "float32"}}, "bias_initializer": {"class_name": "Zeros", "config": {"dtype": "float32"}}, "kernel_regularizer": null, "bias_regularizer": null, "activity_regularizer": null, "kernel_constraint": null, "bias_constraint": null}, "inbound_nodes": [[["expanded_conv_7_add", 0, 0, {}]]]}, {"name": "expanded_conv_8_expand_BN", "class_name": "BatchNormalization", "config": {"name": "expanded_conv_8_expand_BN", "trainable": true, "dtype": "float32", "axis": [3], "momentum": 0.999, "epsilon": 0.001, "center": true, "scale": true, "beta_initializer": {"class_name": "Zeros", "config": {"dtype": "float32"}}, "gamma_initializer": {"class_name": "Ones", "config": {"dtype": "float32"}}, "moving_mean_initializer": {"class_name": "Zeros", "config": {"dtype": "float32"}}, "moving_variance_initializer": {"class_name": "Ones", "config": {"dtype": "float32"}}, "beta_regularizer": null, "gamma_regularizer": null, "beta_constraint": null, "gamma_constraint": null}, "inbound_nodes": [[["expanded_conv_8_expand", 0, 0, {}]]]}, {"name": "expanded_conv_8_expand_relu", "class_name": "Activation", "config": {"name": "expanded_conv_8_expand_relu", "trainable": true, "dtype": "float32", "activation": "relu6"}, "inbound_nodes": [[["expanded_conv_8_expand_BN", 0, 0, {}]]]}, {"name": "expanded_conv_8_depthwise", "class_name": "DepthwiseConv2D", "config": {"name": "expanded_conv_8_depthwise", "trainable": true, "dtype": "float32", "kernel_size": [3, 3], "strides": [1, 1], "padding": "same", "data_format": "channels_last", "dilation_rate": [2, 2], "activation": "linear", "use_bias": false, "bias_initializer": {"class_name": "Zeros", "config": {"dtype": "float32"}}, "bias_regularizer": null, "activity_regularizer": null, "bias_constraint": null, "depth_multiplier": 1, "depthwise_initializer": {"class_name": "GlorotUniform", "config": {"seed": null, "dtype": "float32"}}, "depthwise_regularizer": null, "depthwise_constraint": null}, "inbound_nodes": [[["expanded_conv_8_expand_relu", 0, 0, {}]]]}, {"name": "expanded_conv_8_depthwise_BN", "class_name": "BatchNormalization", "config": {"name": "expanded_conv_8_depthwise_BN", "trainable": true, "dtype": "float32", "axis": [3], "momentum": 0.999, "epsilon": 0.001, "center": true, "scale": true, "beta_initializer": {"class_name": "Zeros", "config": {"dtype": "float32"}}, "gamma_initializer": {"class_name": "Ones", "config": {"dtype": "float32"}}, "moving_mean_initializer": {"class_name": "Zeros", "config": {"dtype": "float32"}}, "moving_variance_initializer": {"class_name": "Ones", "config": {"dtype": "float32"}}, "beta_regularizer": null, "gamma_regularizer": null, "beta_constraint": null, "gamma_constraint": null}, "inbound_nodes": [[["expanded_conv_8_depthwise", 0, 0, {}]]]}, {"name": "expanded_conv_8_depthwise_relu", "class_name": "Activation", "config": {"name": "expanded_conv_8_depthwise_relu", "trainable": true, "dtype": "float32", "activation": "relu6"}, "inbound_nodes": [[["expanded_conv_8_depthwise_BN", 0, 0, {}]]]}, {"name": "expanded_conv_8_project", "class_name": "Conv2D", "config": {"name": "expanded_conv_8_project", "trainable": true, "dtype": "float32", "filters": 64, "kernel_size": [1, 1], "strides": [1, 1], "padding": "same", "data_format": "channels_last", "dilation_rate": [1, 1], "activation": "linear", "use_bias": false, "kernel_initializer": {"class_name": "GlorotUniform", "config": {"seed": null, "dtype": "float32"}}, "bias_initializer": {"class_name": "Zeros", "config": {"dtype": "float32"}}, "kernel_regularizer": null, "bias_regularizer": null, "activity_regularizer": null, "kernel_constraint": null, "bias_constraint": null}, "inbound_nodes": [[["expanded_conv_8_depthwise_relu", 0, 0, {}]]]}, {"name": "expanded_conv_8_project_BN", "class_name": "BatchNormalization", "config": {"name": "expanded_conv_8_project_BN", "trainable": true, "dtype": "float32", "axis": [3], "momentum": 0.999, "epsilon": 0.001, "center": true, "scale": true, "beta_initializer": {"class_name": "Zeros", "config": {"dtype": "float32"}}, "gamma_initializer": {"class_name": "Ones", "config": {"dtype": "float32"}}, "moving_mean_initializer": {"class_name": "Zeros", "config": {"dtype": "float32"}}, "moving_variance_initializer": {"class_name": "Ones", "config": {"dtype": "float32"}}, "beta_regularizer": null, "gamma_regularizer": null, "beta_constraint": null, "gamma_constraint": null}, "inbound_nodes": [[["expanded_conv_8_project", 0, 0, {}]]]}, {"name": "expanded_conv_8_add", "class_name": "Add", "config": {"name": "expanded_conv_8_add", "trainable": true, "dtype": "float32"}, "inbound_nodes": [[["expanded_conv_7_add", 0, 0, {}], ["expanded_conv_8_project_BN", 0, 0, {}]]]}, {"name": "expanded_conv_9_expand", "class_name": "Conv2D", "config": {"name": "expanded_conv_9_expand", "trainable": true, "dtype": "float32", "filters": 384, "kernel_size": [1, 1], "strides": [1, 1], "padding": "same", "data_format": "channels_last", "dilation_rate": [1, 1], "activation": "linear", "use_bias": false, "kernel_initializer": {"class_name": "GlorotUniform", "config": {"seed": null, "dtype": "float32"}}, "bias_initializer": {"class_name": "Zeros", "config": {"dtype": "float32"}}, "kernel_regularizer": null, "bias_regularizer": null, "activity_regularizer": null, "kernel_constraint": null, "bias_constraint": null}, "inbound_nodes": [[["expanded_conv_8_add", 0, 0, {}]]]}, {"name": "expanded_conv_9_expand_BN", "class_name": "BatchNormalization", "config": {"name": "expanded_conv_9_expand_BN", "trainable": true, "dtype": "float32", "axis": [3], "momentum": 0.999, "epsilon": 0.001, "center": true, "scale": true, "beta_initializer": {"class_name": "Zeros", "config": {"dtype": "float32"}}, "gamma_initializer": {"class_name": "Ones", "config": {"dtype": "float32"}}, "moving_mean_initializer": {"class_name": "Zeros", "config": {"dtype": "float32"}}, "moving_variance_initializer": {"class_name": "Ones", "config": {"dtype": "float32"}}, "beta_regularizer": null, "gamma_regularizer": null, "beta_constraint": null, "gamma_constraint": null}, "inbound_nodes": [[["expanded_conv_9_expand", 0, 0, {}]]]}, {"name": "expanded_conv_9_expand_relu", "class_name": "Activation", "config": {"name": "expanded_conv_9_expand_relu", "trainable": true, "dtype": "float32", "activation": "relu6"}, "inbound_nodes": [[["expanded_conv_9_expand_BN", 0, 0, {}]]]}, {"name": "expanded_conv_9_depthwise", "class_name": "DepthwiseConv2D", "config": {"name": "expanded_conv_9_depthwise", "trainable": true, "dtype": "float32", "kernel_size": [3, 3], "strides": [1, 1], "padding": "same", "data_format": "channels_last", "dilation_rate": [2, 2], "activation": "linear", "use_bias": false, "bias_initializer": {"class_name": "Zeros", "config": {"dtype": "float32"}}, "bias_regularizer": null, "activity_regularizer": null, "bias_constraint": null, "depth_multiplier": 1, "depthwise_initializer": {"class_name": "GlorotUniform", "config": {"seed": null, "dtype": "float32"}}, "depthwise_regularizer": null, "depthwise_constraint": null}, "inbound_nodes": [[["expanded_conv_9_expand_relu", 0, 0, {}]]]}, {"name": "expanded_conv_9_depthwise_BN", "class_name": "BatchNormalization", "config": {"name": "expanded_conv_9_depthwise_BN", "trainable": true, "dtype": "float32", "axis": [3], "momentum": 0.999, "epsilon": 0.001, "center": true, "scale": true, "beta_initializer": {"class_name": "Zeros", "config": {"dtype": "float32"}}, "gamma_initializer": {"class_name": "Ones", "config": {"dtype": "float32"}}, "moving_mean_initializer": {"class_name": "Zeros", "config": {"dtype": "float32"}}, "moving_variance_initializer": {"class_name": "Ones", "config": {"dtype": "float32"}}, "beta_regularizer": null, "gamma_regularizer": null, "beta_constraint": null, "gamma_constraint": null}, "inbound_nodes": [[["expanded_conv_9_depthwise", 0, 0, {}]]]}, {"name": "expanded_conv_9_depthwise_relu", "class_name": "Activation", "config": {"name": "expanded_conv_9_depthwise_relu", "trainable": true, "dtype": "float32", "activation": "relu6"}, "inbound_nodes": [[["expanded_conv_9_depthwise_BN", 0, 0, {}]]]}, {"name": "expanded_conv_9_project", "class_name": "Conv2D", "config": {"name": "expanded_conv_9_project", "trainable": true, "dtype": "float32", "filters": 64, "kernel_size": [1, 1], "strides": [1, 1], "padding": "same", "data_format": "channels_last", "dilation_rate": [1, 1], "activation": "linear", "use_bias": false, "kernel_initializer": {"class_name": "GlorotUniform", "config": {"seed": null, "dtype": "float32"}}, "bias_initializer": {"class_name": "Zeros", "config": {"dtype": "float32"}}, "kernel_regularizer": null, "bias_regularizer": null, "activity_regularizer": null, "kernel_constraint": null, "bias_constraint": null}, "inbound_nodes": [[["expanded_conv_9_depthwise_relu", 0, 0, {}]]]}, {"name": "expanded_conv_9_project_BN", "class_name": "BatchNormalization", "config": {"name": "expanded_conv_9_project_BN", "trainable": true, "dtype": "float32", "axis": [3], "momentum": 0.999, "epsilon": 0.001, "center": true, "scale": true, "beta_initializer": {"class_name": "Zeros", "config": {"dtype": "float32"}}, "gamma_initializer": {"class_name": "Ones", "config": {"dtype": "float32"}}, "moving_mean_initializer": {"class_name": "Zeros", "config": {"dtype": "float32"}}, "moving_variance_initializer": {"class_name": "Ones", "config": {"dtype": "float32"}}, "beta_regularizer": null, "gamma_regularizer": null, "beta_constraint": null, "gamma_constraint": null}, "inbound_nodes": [[["expanded_conv_9_project", 0, 0, {}]]]}, {"name": "expanded_conv_9_add", "class_name": "Add", "config": {"name": "expanded_conv_9_add", "trainable": true, "dtype": "float32"}, "inbound_nodes": [[["expanded_conv_8_add", 0, 0, {}], ["expanded_conv_9_project_BN", 0, 0, {}]]]}, {"name": "expanded_conv_10_expand", "class_name": "Conv2D", "config": {"name": "expanded_conv_10_expand", "trainable": true, "dtype": "float32", "filters": 384, "kernel_size": [1, 1], "strides": [1, 1], "padding": "same", "data_format": "channels_last", "dilation_rate": [1, 1], "activation": "linear", "use_bias": false, "kernel_initializer": {"class_name": "GlorotUniform", "config": {"seed": null, "dtype": "float32"}}, "bias_initializer": {"class_name": "Zeros", "config": {"dtype": "float32"}}, "kernel_regularizer": null, "bias_regularizer": null, "activity_regularizer": null, "kernel_constraint": null, "bias_constraint": null}, "inbound_nodes": [[["expanded_conv_9_add", 0, 0, {}]]]}, {"name": "expanded_conv_10_expand_BN", "class_name": "BatchNormalization", "config": {"name": "expanded_conv_10_expand_BN", "trainable": true, "dtype": "float32", "axis": [3], "momentum": 0.999, "epsilon": 0.001, "center": true, "scale": true, "beta_initializer": {"class_name": "Zeros", "config": {"dtype": "float32"}}, "gamma_initializer": {"class_name": "Ones", "config": {"dtype": "float32"}}, "moving_mean_initializer": {"class_name": "Zeros", "config": {"dtype": "float32"}}, "moving_variance_initializer": {"class_name": "Ones", "config": {"dtype": "float32"}}, "beta_regularizer": null, "gamma_regularizer": null, "beta_constraint": null, "gamma_constraint": null}, "inbound_nodes": [[["expanded_conv_10_expand", 0, 0, {}]]]}, {"name": "expanded_conv_10_expand_relu", "class_name": "Activation", "config": {"name": "expanded_conv_10_expand_relu", "trainable": true, "dtype": "float32", "activation": "relu6"}, "inbound_nodes": [[["expanded_conv_10_expand_BN", 0, 0, {}]]]}, {"name": "expanded_conv_10_depthwise", "class_name": "DepthwiseConv2D", "config": {"name": "expanded_conv_10_depthwise", "trainable": true, "dtype": "float32", "kernel_size": [3, 3], "strides": [1, 1], "padding": "same", "data_format": "channels_last", "dilation_rate": [2, 2], "activation": "linear", "use_bias": false, "bias_initializer": {"class_name": "Zeros", "config": {"dtype": "float32"}}, "bias_regularizer": null, "activity_regularizer": null, "bias_constraint": null, "depth_multiplier": 1, "depthwise_initializer": {"class_name": "GlorotUniform", "config": {"seed": null, "dtype": "float32"}}, "depthwise_regularizer": null, "depthwise_constraint": null}, "inbound_nodes": [[["expanded_conv_10_expand_relu", 0, 0, {}]]]}, {"name": "expanded_conv_10_depthwise_BN", "class_name": "BatchNormalization", "config": {"name": "expanded_conv_10_depthwise_BN", "trainable": true, "dtype": "float32", "axis": [3], "momentum": 0.999, "epsilon": 0.001, "center": true, "scale": true, "beta_initializer": {"class_name": "Zeros", "config": {"dtype": "float32"}}, "gamma_initializer": {"class_name": "Ones", "config": {"dtype": "float32"}}, "moving_mean_initializer": {"class_name": "Zeros", "config": {"dtype": "float32"}}, "moving_variance_initializer": {"class_name": "Ones", "config": {"dtype": "float32"}}, "beta_regularizer": null, "gamma_regularizer": null, "beta_constraint": null, "gamma_constraint": null}, "inbound_nodes": [[["expanded_conv_10_depthwise", 0, 0, {}]]]}, {"name": "expanded_conv_10_depthwise_relu", "class_name": "Activation", "config": {"name": "expanded_conv_10_depthwise_relu", "trainable": true, "dtype": "float32", "activation": "relu6"}, "inbound_nodes": [[["expanded_conv_10_depthwise_BN", 0, 0, {}]]]}, {"name": "expanded_conv_10_project", "class_name": "Conv2D", "config": {"name": "expanded_conv_10_project", "trainable": true, "dtype": "float32", "filters": 96, "kernel_size": [1, 1], "strides": [1, 1], "padding": "same", "data_format": "channels_last", "dilation_rate": [1, 1], "activation": "linear", "use_bias": false, "kernel_initializer": {"class_name": "GlorotUniform", "config": {"seed": null, "dtype": "float32"}}, "bias_initializer": {"class_name": "Zeros", "config": {"dtype": "float32"}}, "kernel_regularizer": null, "bias_regularizer": null, "activity_regularizer": null, "kernel_constraint": null, "bias_constraint": null}, "inbound_nodes": [[["expanded_conv_10_depthwise_relu", 0, 0, {}]]]}, {"name": "expanded_conv_10_project_BN", "class_name": "BatchNormalization", "config": {"name": "expanded_conv_10_project_BN", "trainable": true, "dtype": "float32", "axis": [3], "momentum": 0.999, "epsilon": 0.001, "center": true, "scale": true, "beta_initializer": {"class_name": "Zeros", "config": {"dtype": "float32"}}, "gamma_initializer": {"class_name": "Ones", "config": {"dtype": "float32"}}, "moving_mean_initializer": {"class_name": "Zeros", "config": {"dtype": "float32"}}, "moving_variance_initializer": {"class_name": "Ones", "config": {"dtype": "float32"}}, "beta_regularizer": null, "gamma_regularizer": null, "beta_constraint": null, "gamma_constraint": null}, "inbound_nodes": [[["expanded_conv_10_project", 0, 0, {}]]]}, {"name": "expanded_conv_11_expand", "class_name": "Conv2D", "config": {"name": "expanded_conv_11_expand", "trainable": true, "dtype": "float32", "filters": 576, "kernel_size": [1, 1], "strides": [1, 1], "padding": "same", "data_format": "channels_last", "dilation_rate": [1, 1], "activation": "linear", "use_bias": false, "kernel_initializer": {"class_name": "GlorotUniform", "config": {"seed": null, "dtype": "float32"}}, "bias_initializer": {"class_name": "Zeros", "config": {"dtype": "float32"}}, "kernel_regularizer": null, "bias_regularizer": null, "activity_regularizer": null, "kernel_constraint": null, "bias_constraint": null}, "inbound_nodes": [[["expanded_conv_10_project_BN", 0, 0, {}]]]}, {"name": "expanded_conv_11_expand_BN", "class_name": "BatchNormalization", "config": {"name": "expanded_conv_11_expand_BN", "trainable": true, "dtype": "float32", "axis": [3], "momentum": 0.999, "epsilon": 0.001, "center": true, "scale": true, "beta_initializer": {"class_name": "Zeros", "config": {"dtype": "float32"}}, "gamma_initializer": {"class_name": "Ones", "config": {"dtype": "float32"}}, "moving_mean_initializer": {"class_name": "Zeros", "config": {"dtype": "float32"}}, "moving_variance_initializer": {"class_name": "Ones", "config": {"dtype": "float32"}}, "beta_regularizer": null, "gamma_regularizer": null, "beta_constraint": null, "gamma_constraint": null}, "inbound_nodes": [[["expanded_conv_11_expand", 0, 0, {}]]]}, {"name": "expanded_conv_11_expand_relu", "class_name": "Activation", "config": {"name": "expanded_conv_11_expand_relu", "trainable": true, "dtype": "float32", "activation": "relu6"}, "inbound_nodes": [[["expanded_conv_11_expand_BN", 0, 0, {}]]]}, {"name": "expanded_conv_11_depthwise", "class_name": "DepthwiseConv2D", "config": {"name": "expanded_conv_11_depthwise", "trainable": true, "dtype": "float32", "kernel_size": [3, 3], "strides": [1, 1], "padding": "same", "data_format": "channels_last", "dilation_rate": [2, 2], "activation": "linear", "use_bias": false, "bias_initializer": {"class_name": "Zeros", "config": {"dtype": "float32"}}, "bias_regularizer": null, "activity_regularizer": null, "bias_constraint": null, "depth_multiplier": 1, "depthwise_initializer": {"class_name": "GlorotUniform", "config": {"seed": null, "dtype": "float32"}}, "depthwise_regularizer": null, "depthwise_constraint": null}, "inbound_nodes": [[["expanded_conv_11_expand_relu", 0, 0, {}]]]}, {"name": "expanded_conv_11_depthwise_BN", "class_name": "BatchNormalization", "config": {"name": "expanded_conv_11_depthwise_BN", "trainable": true, "dtype": "float32", "axis": [3], "momentum": 0.999, "epsilon": 0.001, "center": true, "scale": true, "beta_initializer": {"class_name": "Zeros", "config": {"dtype": "float32"}}, "gamma_initializer": {"class_name": "Ones", "config": {"dtype": "float32"}}, "moving_mean_initializer": {"class_name": "Zeros", "config": {"dtype": "float32"}}, "moving_variance_initializer": {"class_name": "Ones", "config": {"dtype": "float32"}}, "beta_regularizer": null, "gamma_regularizer": null, "beta_constraint": null, "gamma_constraint": null}, "inbound_nodes": [[["expanded_conv_11_depthwise", 0, 0, {}]]]}, {"name": "expanded_conv_11_depthwise_relu", "class_name": "Activation", "config": {"name": "expanded_conv_11_depthwise_relu", "trainable": true, "dtype": "float32", "activation": "relu6"}, "inbound_nodes": [[["expanded_conv_11_depthwise_BN", 0, 0, {}]]]}, {"name": "expanded_conv_11_project", "class_name": "Conv2D", "config": {"name": "expanded_conv_11_project", "trainable": true, "dtype": "float32", "filters": 96, "kernel_size": [1, 1], "strides": [1, 1], "padding": "same", "data_format": "channels_last", "dilation_rate": [1, 1], "activation": "linear", "use_bias": false, "kernel_initializer": {"class_name": "GlorotUniform", "config": {"seed": null, "dtype": "float32"}}, "bias_initializer": {"class_name": "Zeros", "config": {"dtype": "float32"}}, "kernel_regularizer": null, "bias_regularizer": null, "activity_regularizer": null, "kernel_constraint": null, "bias_constraint": null}, "inbound_nodes": [[["expanded_conv_11_depthwise_relu", 0, 0, {}]]]}, {"name": "expanded_conv_11_project_BN", "class_name": "BatchNormalization", "config": {"name": "expanded_conv_11_project_BN", "trainable": true, "dtype": "float32", "axis": [3], "momentum": 0.999, "epsilon": 0.001, "center": true, "scale": true, "beta_initializer": {"class_name": "Zeros", "config": {"dtype": "float32"}}, "gamma_initializer": {"class_name": "Ones", "config": {"dtype": "float32"}}, "moving_mean_initializer": {"class_name": "Zeros", "config": {"dtype": "float32"}}, "moving_variance_initializer": {"class_name": "Ones", "config": {"dtype": "float32"}}, "beta_regularizer": null, "gamma_regularizer": null, "beta_constraint": null, "gamma_constraint": null}, "inbound_nodes": [[["expanded_conv_11_project", 0, 0, {}]]]}, {"name": "expanded_conv_11_add", "class_name": "Add", "config": {"name": "expanded_conv_11_add", "trainable": true, "dtype": "float32"}, "inbound_nodes": [[["expanded_conv_10_project_BN", 0, 0, {}], ["expanded_conv_11_project_BN", 0, 0, {}]]]}, {"name": "expanded_conv_12_expand", "class_name": "Conv2D", "config": {"name": "expanded_conv_12_expand", "trainable": true, "dtype": "float32", "filters": 576, "kernel_size": [1, 1], "strides": [1, 1], "padding": "same", "data_format": "channels_last", "dilation_rate": [1, 1], "activation": "linear", "use_bias": false, "kernel_initializer": {"class_name": "GlorotUniform", "config": {"seed": null, "dtype": "float32"}}, "bias_initializer": {"class_name": "Zeros", "config": {"dtype": "float32"}}, "kernel_regularizer": null, "bias_regularizer": null, "activity_regularizer": null, "kernel_constraint": null, "bias_constraint": null}, "inbound_nodes": [[["expanded_conv_11_add", 0, 0, {}]]]}, {"name": "expanded_conv_12_expand_BN", "class_name": "BatchNormalization", "config": {"name": "expanded_conv_12_expand_BN", "trainable": true, "dtype": "float32", "axis": [3], "momentum": 0.999, "epsilon": 0.001, "center": true, "scale": true, "beta_initializer": {"class_name": "Zeros", "config": {"dtype": "float32"}}, "gamma_initializer": {"class_name": "Ones", "config": {"dtype": "float32"}}, "moving_mean_initializer": {"class_name": "Zeros", "config": {"dtype": "float32"}}, "moving_variance_initializer": {"class_name": "Ones", "config": {"dtype": "float32"}}, "beta_regularizer": null, "gamma_regularizer": null, "beta_constraint": null, "gamma_constraint": null}, "inbound_nodes": [[["expanded_conv_12_expand", 0, 0, {}]]]}, {"name": "expanded_conv_12_expand_relu", "class_name": "Activation", "config": {"name": "expanded_conv_12_expand_relu", "trainable": true, "dtype": "float32", "activation": "relu6"}, "inbound_nodes": [[["expanded_conv_12_expand_BN", 0, 0, {}]]]}, {"name": "expanded_conv_12_depthwise", "class_name": "DepthwiseConv2D", "config": {"name": "expanded_conv_12_depthwise", "trainable": true, "dtype": "float32", "kernel_size": [3, 3], "strides": [1, 1], "padding": "same", "data_format": "channels_last", "dilation_rate": [2, 2], "activation": "linear", "use_bias": false, "bias_initializer": {"class_name": "Zeros", "config": {"dtype": "float32"}}, "bias_regularizer": null, "activity_regularizer": null, "bias_constraint": null, "depth_multiplier": 1, "depthwise_initializer": {"class_name": "GlorotUniform", "config": {"seed": null, "dtype": "float32"}}, "depthwise_regularizer": null, "depthwise_constraint": null}, "inbound_nodes": [[["expanded_conv_12_expand_relu", 0, 0, {}]]]}, {"name": "expanded_conv_12_depthwise_BN", "class_name": "BatchNormalization", "config": {"name": "expanded_conv_12_depthwise_BN", "trainable": true, "dtype": "float32", "axis": [3], "momentum": 0.999, "epsilon": 0.001, "center": true, "scale": true, "beta_initializer": {"class_name": "Zeros", "config": {"dtype": "float32"}}, "gamma_initializer": {"class_name": "Ones", "config": {"dtype": "float32"}}, "moving_mean_initializer": {"class_name": "Zeros", "config": {"dtype": "float32"}}, "moving_variance_initializer": {"class_name": "Ones", "config": {"dtype": "float32"}}, "beta_regularizer": null, "gamma_regularizer": null, "beta_constraint": null, "gamma_constraint": null}, "inbound_nodes": [[["expanded_conv_12_depthwise", 0, 0, {}]]]}, {"name": "expanded_conv_12_depthwise_relu", "class_name": "Activation", "config": {"name": "expanded_conv_12_depthwise_relu", "trainable": true, "dtype": "float32", "activation": "relu6"}, "inbound_nodes": [[["expanded_conv_12_depthwise_BN", 0, 0, {}]]]}, {"name": "expanded_conv_12_project", "class_name": "Conv2D", "config": {"name": "expanded_conv_12_project", "trainable": true, "dtype": "float32", "filters": 96, "kernel_size": [1, 1], "strides": [1, 1], "padding": "same", "data_format": "channels_last", "dilation_rate": [1, 1], "activation": "linear", "use_bias": false, "kernel_initializer": {"class_name": "GlorotUniform", "config": {"seed": null, "dtype": "float32"}}, "bias_initializer": {"class_name": "Zeros", "config": {"dtype": "float32"}}, "kernel_regularizer": null, "bias_regularizer": null, "activity_regularizer": null, "kernel_constraint": null, "bias_constraint": null}, "inbound_nodes": [[["expanded_conv_12_depthwise_relu", 0, 0, {}]]]}, {"name": "expanded_conv_12_project_BN", "class_name": "BatchNormalization", "config": {"name": "expanded_conv_12_project_BN", "trainable": true, "dtype": "float32", "axis": [3], "momentum": 0.999, "epsilon": 0.001, "center": true, "scale": true, "beta_initializer": {"class_name": "Zeros", "config": {"dtype": "float32"}}, "gamma_initializer": {"class_name": "Ones", "config": {"dtype": "float32"}}, "moving_mean_initializer": {"class_name": "Zeros", "config": {"dtype": "float32"}}, "moving_variance_initializer": {"class_name": "Ones", "config": {"dtype": "float32"}}, "beta_regularizer": null, "gamma_regularizer": null, "beta_constraint": null, "gamma_constraint": null}, "inbound_nodes": [[["expanded_conv_12_project", 0, 0, {}]]]}, {"name": "expanded_conv_12_add", "class_name": "Add", "config": {"name": "expanded_conv_12_add", "trainable": true, "dtype": "float32"}, "inbound_nodes": [[["expanded_conv_11_add", 0, 0, {}], ["expanded_conv_12_project_BN", 0, 0, {}]]]}, {"name": "expanded_conv_13_expand", "class_name": "Conv2D", "config": {"name": "expanded_conv_13_expand", "trainable": true, "dtype": "float32", "filters": 576, "kernel_size": [1, 1], "strides": [1, 1], "padding": "same", "data_format": "channels_last", "dilation_rate": [1, 1], "activation": "linear", "use_bias": false, "kernel_initializer": {"class_name": "GlorotUniform", "config": {"seed": null, "dtype": "float32"}}, "bias_initializer": {"class_name": "Zeros", "config": {"dtype": "float32"}}, "kernel_regularizer": null, "bias_regularizer": null, "activity_regularizer": null, "kernel_constraint": null, "bias_constraint": null}, "inbound_nodes": [[["expanded_conv_12_add", 0, 0, {}]]]}, {"name": "expanded_conv_13_expand_BN", "class_name": "BatchNormalization", "config": {"name": "expanded_conv_13_expand_BN", "trainable": true, "dtype": "float32", "axis": [3], "momentum": 0.999, "epsilon": 0.001, "center": true, "scale": true, "beta_initializer": {"class_name": "Zeros", "config": {"dtype": "float32"}}, "gamma_initializer": {"class_name": "Ones", "config": {"dtype": "float32"}}, "moving_mean_initializer": {"class_name": "Zeros", "config": {"dtype": "float32"}}, "moving_variance_initializer": {"class_name": "Ones", "config": {"dtype": "float32"}}, "beta_regularizer": null, "gamma_regularizer": null, "beta_constraint": null, "gamma_constraint": null}, "inbound_nodes": [[["expanded_conv_13_expand", 0, 0, {}]]]}, {"name": "expanded_conv_13_expand_relu", "class_name": "Activation", "config": {"name": "expanded_conv_13_expand_relu", "trainable": true, "dtype": "float32", "activation": "relu6"}, "inbound_nodes": [[["expanded_conv_13_expand_BN", 0, 0, {}]]]}, {"name": "expanded_conv_13_depthwise", "class_name": "DepthwiseConv2D", "config": {"name": "expanded_conv_13_depthwise", "trainable": true, "dtype": "float32", "kernel_size": [3, 3], "strides": [1, 1], "padding": "same", "data_format": "channels_last", "dilation_rate": [2, 2], "activation": "linear", "use_bias": false, "bias_initializer": {"class_name": "Zeros", "config": {"dtype": "float32"}}, "bias_regularizer": null, "activity_regularizer": null, "bias_constraint": null, "depth_multiplier": 1, "depthwise_initializer": {"class_name": "GlorotUniform", "config": {"seed": null, "dtype": "float32"}}, "depthwise_regularizer": null, "depthwise_constraint": null}, "inbound_nodes": [[["expanded_conv_13_expand_relu", 0, 0, {}]]]}, {"name": "expanded_conv_13_depthwise_BN", "class_name": "BatchNormalization", "config": {"name": "expanded_conv_13_depthwise_BN", "trainable": true, "dtype": "float32", "axis": [3], "momentum": 0.999, "epsilon": 0.001, "center": true, "scale": true, "beta_initializer": {"class_name": "Zeros", "config": {"dtype": "float32"}}, "gamma_initializer": {"class_name": "Ones", "config": {"dtype": "float32"}}, "moving_mean_initializer": {"class_name": "Zeros", "config": {"dtype": "float32"}}, "moving_variance_initializer": {"class_name": "Ones", "config": {"dtype": "float32"}}, "beta_regularizer": null, "gamma_regularizer": null, "beta_constraint": null, "gamma_constraint": null}, "inbound_nodes": [[["expanded_conv_13_depthwise", 0, 0, {}]]]}, {"name": "expanded_conv_13_depthwise_relu", "class_name": "Activation", "config": {"name": "expanded_conv_13_depthwise_relu", "trainable": true, "dtype": "float32", "activation": "relu6"}, "inbound_nodes": [[["expanded_conv_13_depthwise_BN", 0, 0, {}]]]}, {"name": "expanded_conv_13_project", "class_name": "Conv2D", "config": {"name": "expanded_conv_13_project", "trainable": true, "dtype": "float32", "filters": 160, "kernel_size": [1, 1], "strides": [1, 1], "padding": "same", "data_format": "channels_last", "dilation_rate": [1, 1], "activation": "linear", "use_bias": false, "kernel_initializer": {"class_name": "GlorotUniform", "config": {"seed": null, "dtype": "float32"}}, "bias_initializer": {"class_name": "Zeros", "config": {"dtype": "float32"}}, "kernel_regularizer": null, "bias_regularizer": null, "activity_regularizer": null, "kernel_constraint": null, "bias_constraint": null}, "inbound_nodes": [[["expanded_conv_13_depthwise_relu", 0, 0, {}]]]}, {"name": "expanded_conv_13_project_BN", "class_name": "BatchNormalization", "config": {"name": "expanded_conv_13_project_BN", "trainable": true, "dtype": "float32", "axis": [3], "momentum": 0.999, "epsilon": 0.001, "center": true, "scale": true, "beta_initializer": {"class_name": "Zeros", "config": {"dtype": "float32"}}, "gamma_initializer": {"class_name": "Ones", "config": {"dtype": "float32"}}, "moving_mean_initializer": {"class_name": "Zeros", "config": {"dtype": "float32"}}, "moving_variance_initializer": {"class_name": "Ones", "config": {"dtype": "float32"}}, "beta_regularizer": null, "gamma_regularizer": null, "beta_constraint": null, "gamma_constraint": null}, "inbound_nodes": [[["expanded_conv_13_project", 0, 0, {}]]]}, {"name": "expanded_conv_14_expand", "class_name": "Conv2D", "config": {"name": "expanded_conv_14_expand", "trainable": true, "dtype": "float32", "filters": 960, "kernel_size": [1, 1], "strides": [1, 1], "padding": "same", "data_format": "channels_last", "dilation_rate": [1, 1], "activation": "linear", "use_bias": false, "kernel_initializer": {"class_name": "GlorotUniform", "config": {"seed": null, "dtype": "float32"}}, "bias_initializer": {"class_name": "Zeros", "config": {"dtype": "float32"}}, "kernel_regularizer": null, "bias_regularizer": null, "activity_regularizer": null, "kernel_constraint": null, "bias_constraint": null}, "inbound_nodes": [[["expanded_conv_13_project_BN", 0, 0, {}]]]}, {"name": "expanded_conv_14_expand_BN", "class_name": "BatchNormalization", "config": {"name": "expanded_conv_14_expand_BN", "trainable": true, "dtype": "float32", "axis": [3], "momentum": 0.999, "epsilon": 0.001, "center": true, "scale": true, "beta_initializer": {"class_name": "Zeros", "config": {"dtype": "float32"}}, "gamma_initializer": {"class_name": "Ones", "config": {"dtype": "float32"}}, "moving_mean_initializer": {"class_name": "Zeros", "config": {"dtype": "float32"}}, "moving_variance_initializer": {"class_name": "Ones", "config": {"dtype": "float32"}}, "beta_regularizer": null, "gamma_regularizer": null, "beta_constraint": null, "gamma_constraint": null}, "inbound_nodes": [[["expanded_conv_14_expand", 0, 0, {}]]]}, {"name": "expanded_conv_14_expand_relu", "class_name": "Activation", "config": {"name": "expanded_conv_14_expand_relu", "trainable": true, "dtype": "float32", "activation": "relu6"}, "inbound_nodes": [[["expanded_conv_14_expand_BN", 0, 0, {}]]]}, {"name": "expanded_conv_14_depthwise", "class_name": "DepthwiseConv2D", "config": {"name": "expanded_conv_14_depthwise", "trainable": true, "dtype": "float32", "kernel_size": [3, 3], "strides": [1, 1], "padding": "same", "data_format": "channels_last", "dilation_rate": [4, 4], "activation": "linear", "use_bias": false, "bias_initializer": {"class_name": "Zeros", "config": {"dtype": "float32"}}, "bias_regularizer": null, "activity_regularizer": null, "bias_constraint": null, "depth_multiplier": 1, "depthwise_initializer": {"class_name": "GlorotUniform", "config": {"seed": null, "dtype": "float32"}}, "depthwise_regularizer": null, "depthwise_constraint": null}, "inbound_nodes": [[["expanded_conv_14_expand_relu", 0, 0, {}]]]}, {"name": "expanded_conv_14_depthwise_BN", "class_name": "BatchNormalization", "config": {"name": "expanded_conv_14_depthwise_BN", "trainable": true, "dtype": "float32", "axis": [3], "momentum": 0.999, "epsilon": 0.001, "center": true, "scale": true, "beta_initializer": {"class_name": "Zeros", "config": {"dtype": "float32"}}, "gamma_initializer": {"class_name": "Ones", "config": {"dtype": "float32"}}, "moving_mean_initializer": {"class_name": "Zeros", "config": {"dtype": "float32"}}, "moving_variance_initializer": {"class_name": "Ones", "config": {"dtype": "float32"}}, "beta_regularizer": null, "gamma_regularizer": null, "beta_constraint": null, "gamma_constraint": null}, "inbound_nodes": [[["expanded_conv_14_depthwise", 0, 0, {}]]]}, {"name": "expanded_conv_14_depthwise_relu", "class_name": "Activation", "config": {"name": "expanded_conv_14_depthwise_relu", "trainable": true, "dtype": "float32", "activation": "relu6"}, "inbound_nodes": [[["expanded_conv_14_depthwise_BN", 0, 0, {}]]]}, {"name": "expanded_conv_14_project", "class_name": "Conv2D", "config": {"name": "expanded_conv_14_project", "trainable": true, "dtype": "float32", "filters": 160, "kernel_size": [1, 1], "strides": [1, 1], "padding": "same", "data_format": "channels_last", "dilation_rate": [1, 1], "activation": "linear", "use_bias": false, "kernel_initializer": {"class_name": "GlorotUniform", "config": {"seed": null, "dtype": "float32"}}, "bias_initializer": {"class_name": "Zeros", "config": {"dtype": "float32"}}, "kernel_regularizer": null, "bias_regularizer": null, "activity_regularizer": null, "kernel_constraint": null, "bias_constraint": null}, "inbound_nodes": [[["expanded_conv_14_depthwise_relu", 0, 0, {}]]]}, {"name": "expanded_conv_14_project_BN", "class_name": "BatchNormalization", "config": {"name": "expanded_conv_14_project_BN", "trainable": true, "dtype": "float32", "axis": [3], "momentum": 0.999, "epsilon": 0.001, "center": true, "scale": true, "beta_initializer": {"class_name": "Zeros", "config": {"dtype": "float32"}}, "gamma_initializer": {"class_name": "Ones", "config": {"dtype": "float32"}}, "moving_mean_initializer": {"class_name": "Zeros", "config": {"dtype": "float32"}}, "moving_variance_initializer": {"class_name": "Ones", "config": {"dtype": "float32"}}, "beta_regularizer": null, "gamma_regularizer": null, "beta_constraint": null, "gamma_constraint": null}, "inbound_nodes": [[["expanded_conv_14_project", 0, 0, {}]]]}, {"name": "expanded_conv_14_add", "class_name": "Add", "config": {"name": "expanded_conv_14_add", "trainable": true, "dtype": "float32"}, "inbound_nodes": [[["expanded_conv_13_project_BN", 0, 0, {}], ["expanded_conv_14_project_BN", 0, 0, {}]]]}, {"name": "expanded_conv_15_expand", "class_name": "Conv2D", "config": {"name": "expanded_conv_15_expand", "trainable": true, "dtype": "float32", "filters": 960, "kernel_size": [1, 1], "strides": [1, 1], "padding": "same", "data_format": "channels_last", "dilation_rate": [1, 1], "activation": "linear", "use_bias": false, "kernel_initializer": {"class_name": "GlorotUniform", "config": {"seed": null, "dtype": "float32"}}, "bias_initializer": {"class_name": "Zeros", "config": {"dtype": "float32"}}, "kernel_regularizer": null, "bias_regularizer": null, "activity_regularizer": null, "kernel_constraint": null, "bias_constraint": null}, "inbound_nodes": [[["expanded_conv_14_add", 0, 0, {}]]]}, {"name": "expanded_conv_15_expand_BN", "class_name": "BatchNormalization", "config": {"name": "expanded_conv_15_expand_BN", "trainable": true, "dtype": "float32", "axis": [3], "momentum": 0.999, "epsilon": 0.001, "center": true, "scale": true, "beta_initializer": {"class_name": "Zeros", "config": {"dtype": "float32"}}, "gamma_initializer": {"class_name": "Ones", "config": {"dtype": "float32"}}, "moving_mean_initializer": {"class_name": "Zeros", "config": {"dtype": "float32"}}, "moving_variance_initializer": {"class_name": "Ones", "config": {"dtype": "float32"}}, "beta_regularizer": null, "gamma_regularizer": null, "beta_constraint": null, "gamma_constraint": null}, "inbound_nodes": [[["expanded_conv_15_expand", 0, 0, {}]]]}, {"name": "expanded_conv_15_expand_relu", "class_name": "Activation", "config": {"name": "expanded_conv_15_expand_relu", "trainable": true, "dtype": "float32", "activation": "relu6"}, "inbound_nodes": [[["expanded_conv_15_expand_BN", 0, 0, {}]]]}, {"name": "expanded_conv_15_depthwise", "class_name": "DepthwiseConv2D", "config": {"name": "expanded_conv_15_depthwise", "trainable": true, "dtype": "float32", "kernel_size": [3, 3], "strides": [1, 1], "padding": "same", "data_format": "channels_last", "dilation_rate": [4, 4], "activation": "linear", "use_bias": false, "bias_initializer": {"class_name": "Zeros", "config": {"dtype": "float32"}}, "bias_regularizer": null, "activity_regularizer": null, "bias_constraint": null, "depth_multiplier": 1, "depthwise_initializer": {"class_name": "GlorotUniform", "config": {"seed": null, "dtype": "float32"}}, "depthwise_regularizer": null, "depthwise_constraint": null}, "inbound_nodes": [[["expanded_conv_15_expand_relu", 0, 0, {}]]]}, {"name": "expanded_conv_15_depthwise_BN", "class_name": "BatchNormalization", "config": {"name": "expanded_conv_15_depthwise_BN", "trainable": true, "dtype": "float32", "axis": [3], "momentum": 0.999, "epsilon": 0.001, "center": true, "scale": true, "beta_initializer": {"class_name": "Zeros", "config": {"dtype": "float32"}}, "gamma_initializer": {"class_name": "Ones", "config": {"dtype": "float32"}}, "moving_mean_initializer": {"class_name": "Zeros", "config": {"dtype": "float32"}}, "moving_variance_initializer": {"class_name": "Ones", "config": {"dtype": "float32"}}, "beta_regularizer": null, "gamma_regularizer": null, "beta_constraint": null, "gamma_constraint": null}, "inbound_nodes": [[["expanded_conv_15_depthwise", 0, 0, {}]]]}, {"name": "expanded_conv_15_depthwise_relu", "class_name": "Activation", "config": {"name": "expanded_conv_15_depthwise_relu", "trainable": true, "dtype": "float32", "activation": "relu6"}, "inbound_nodes": [[["expanded_conv_15_depthwise_BN", 0, 0, {}]]]}, {"name": "expanded_conv_15_project", "class_name": "Conv2D", "config": {"name": "expanded_conv_15_project", "trainable": true, "dtype": "float32", "filters": 160, "kernel_size": [1, 1], "strides": [1, 1], "padding": "same", "data_format": "channels_last", "dilation_rate": [1, 1], "activation": "linear", "use_bias": false, "kernel_initializer": {"class_name": "GlorotUniform", "config": {"seed": null, "dtype": "float32"}}, "bias_initializer": {"class_name": "Zeros", "config": {"dtype": "float32"}}, "kernel_regularizer": null, "bias_regularizer": null, "activity_regularizer": null, "kernel_constraint": null, "bias_constraint": null}, "inbound_nodes": [[["expanded_conv_15_depthwise_relu", 0, 0, {}]]]}, {"name": "expanded_conv_15_project_BN", "class_name": "BatchNormalization", "config": {"name": "expanded_conv_15_project_BN", "trainable": true, "dtype": "float32", "axis": [3], "momentum": 0.999, "epsilon": 0.001, "center": true, "scale": true, "beta_initializer": {"class_name": "Zeros", "config": {"dtype": "float32"}}, "gamma_initializer": {"class_name": "Ones", "config": {"dtype": "float32"}}, "moving_mean_initializer": {"class_name": "Zeros", "config": {"dtype": "float32"}}, "moving_variance_initializer": {"class_name": "Ones", "config": {"dtype": "float32"}}, "beta_regularizer": null, "gamma_regularizer": null, "beta_constraint": null, "gamma_constraint": null}, "inbound_nodes": [[["expanded_conv_15_project", 0, 0, {}]]]}, {"name": "expanded_conv_15_add", "class_name": "Add", "config": {"name": "expanded_conv_15_add", "trainable": true, "dtype": "float32"}, "inbound_nodes": [[["expanded_conv_14_add", 0, 0, {}], ["expanded_conv_15_project_BN", 0, 0, {}]]]}, {"name": "expanded_conv_16_expand", "class_name": "Conv2D", "config": {"name": "expanded_conv_16_expand", "trainable": true, "dtype": "float32", "filters": 960, "kernel_size": [1, 1], "strides": [1, 1], "padding": "same", "data_format": "channels_last", "dilation_rate": [1, 1], "activation": "linear", "use_bias": false, "kernel_initializer": {"class_name": "GlorotUniform", "config": {"seed": null, "dtype": "float32"}}, "bias_initializer": {"class_name": "Zeros", "config": {"dtype": "float32"}}, "kernel_regularizer": null, "bias_regularizer": null, "activity_regularizer": null, "kernel_constraint": null, "bias_constraint": null}, "inbound_nodes": [[["expanded_conv_15_add", 0, 0, {}]]]}, {"name": "expanded_conv_16_expand_BN", "class_name": "BatchNormalization", "config": {"name": "expanded_conv_16_expand_BN", "trainable": true, "dtype": "float32", "axis": [3], "momentum": 0.999, "epsilon": 0.001, "center": true, "scale": true, "beta_initializer": {"class_name": "Zeros", "config": {"dtype": "float32"}}, "gamma_initializer": {"class_name": "Ones", "config": {"dtype": "float32"}}, "moving_mean_initializer": {"class_name": "Zeros", "config": {"dtype": "float32"}}, "moving_variance_initializer": {"class_name": "Ones", "config": {"dtype": "float32"}}, "beta_regularizer": null, "gamma_regularizer": null, "beta_constraint": null, "gamma_constraint": null}, "inbound_nodes": [[["expanded_conv_16_expand", 0, 0, {}]]]}, {"name": "expanded_conv_16_expand_relu", "class_name": "Activation", "config": {"name": "expanded_conv_16_expand_relu", "trainable": true, "dtype": "float32", "activation": "relu6"}, "inbound_nodes": [[["expanded_conv_16_expand_BN", 0, 0, {}]]]}, {"name": "expanded_conv_16_depthwise", "class_name": "DepthwiseConv2D", "config": {"name": "expanded_conv_16_depthwise", "trainable": true, "dtype": "float32", "kernel_size": [3, 3], "strides": [1, 1], "padding": "same", "data_format": "channels_last", "dilation_rate": [4, 4], "activation": "linear", "use_bias": false, "bias_initializer": {"class_name": "Zeros", "config": {"dtype": "float32"}}, "bias_regularizer": null, "activity_regularizer": null, "bias_constraint": null, "depth_multiplier": 1, "depthwise_initializer": {"class_name": "GlorotUniform", "config": {"seed": null, "dtype": "float32"}}, "depthwise_regularizer": null, "depthwise_constraint": null}, "inbound_nodes": [[["expanded_conv_16_expand_relu", 0, 0, {}]]]}, {"name": "expanded_conv_16_depthwise_BN", "class_name": "BatchNormalization", "config": {"name": "expanded_conv_16_depthwise_BN", "trainable": true, "dtype": "float32", "axis": [3], "momentum": 0.999, "epsilon": 0.001, "center": true, "scale": true, "beta_initializer": {"class_name": "Zeros", "config": {"dtype": "float32"}}, "gamma_initializer": {"class_name": "Ones", "config": {"dtype": "float32"}}, "moving_mean_initializer": {"class_name": "Zeros", "config": {"dtype": "float32"}}, "moving_variance_initializer": {"class_name": "Ones", "config": {"dtype": "float32"}}, "beta_regularizer": null, "gamma_regularizer": null, "beta_constraint": null, "gamma_constraint": null}, "inbound_nodes": [[["expanded_conv_16_depthwise", 0, 0, {}]]]}, {"name": "expanded_conv_16_depthwise_relu", "class_name": "Activation", "config": {"name": "expanded_conv_16_depthwise_relu", "trainable": true, "dtype": "float32", "activation": "relu6"}, "inbound_nodes": [[["expanded_conv_16_depthwise_BN", 0, 0, {}]]]}, {"name": "expanded_conv_16_project", "class_name": "Conv2D", "config": {"name": "expanded_conv_16_project", "trainable": true, "dtype": "float32", "filters": 320, "kernel_size": [1, 1], "strides": [1, 1], "padding": "same", "data_format": "channels_last", "dilation_rate": [1, 1], "activation": "linear", "use_bias": false, "kernel_initializer": {"class_name": "GlorotUniform", "config": {"seed": null, "dtype": "float32"}}, "bias_initializer": {"class_name": "Zeros", "config": {"dtype": "float32"}}, "kernel_regularizer": null, "bias_regularizer": null, "activity_regularizer": null, "kernel_constraint": null, "bias_constraint": null}, "inbound_nodes": [[["expanded_conv_16_depthwise_relu", 0, 0, {}]]]}, {"name": "expanded_conv_16_project_BN", "class_name": "BatchNormalization", "config": {"name": "expanded_conv_16_project_BN", "trainable": true, "dtype": "float32", "axis": [3], "momentum": 0.999, "epsilon": 0.001, "center": true, "scale": true, "beta_initializer": {"class_name": "Zeros", "config": {"dtype": "float32"}}, "gamma_initializer": {"class_name": "Ones", "config": {"dtype": "float32"}}, "moving_mean_initializer": {"class_name": "Zeros", "config": {"dtype": "float32"}}, "moving_variance_initializer": {"class_name": "Ones", "config": {"dtype": "float32"}}, "beta_regularizer": null, "gamma_regularizer": null, "beta_constraint": null, "gamma_constraint": null}, "inbound_nodes": [[["expanded_conv_16_project", 0, 0, {}]]]}, {"name": "global_average_pooling2d_3", "class_name": "GlobalAveragePooling2D", "config": {"name": "global_average_pooling2d_3", "trainable": true, "dtype": "float32", "data_format": "channels_last"}, "inbound_nodes": [[["expanded_conv_16_project_BN", 0, 0, {}]]]}, {"name": "lambda_12", "class_name": "Lambda", "config": {"name": "lambda_12", "trainable": true, "dtype": "float32", "function": ["4wEAAAAAAAAAAQAAAAQAAABTAAAAcwwAAAB0AKABfABkAaECUwApAk7pAQAAACkC2gFL2gtleHBh\nbmRfZGltcykB2gF4qQByBQAAAPoePGlweXRob24taW5wdXQtMy03YTMyNDk2ZTc4Yjc+2gg8bGFt\nYmRhPlYBAADzAAAAAA==\n", null, null], "function_type": "lambda", "module": "__main__", "output_shape": null, "output_shape_type": "raw", "output_shape_module": null, "arguments": {}}, "inbound_nodes": [[["global_average_pooling2d_3", 0, 0, {}]]]}, {"name": "lambda_13", "class_name": "Lambda", "config": {"name": "lambda_13", "trainable": true, "dtype": "float32", "function": ["4wEAAAAAAAAAAQAAAAQAAABTAAAAcwwAAAB0AKABfABkAaECUwApAk7pAQAAACkC2gFL2gtleHBh\nbmRfZGltcykB2gF4qQByBQAAAPoePGlweXRob24taW5wdXQtMy03YTMyNDk2ZTc4Yjc+2gg8bGFt\nYmRhPlcBAADzAAAAAA==\n", null, null], "function_type": "lambda", "module": "__main__", "output_shape": null, "output_shape_type": "raw", "output_shape_module": null, "arguments": {}}, "inbound_nodes": [[["lambda_12", 0, 0, {}]]]}, {"name": "image_pooling", "class_name": "Conv2D", "config": {"name": "image_pooling", "trainable": true, "dtype": "float32", "filters": 256, "kernel_size": [1, 1], "strides": [1, 1], "padding": "same", "data_format": "channels_last", "dilation_rate": [1, 1], "activation": "linear", "use_bias": false, "kernel_initializer": {"class_name": "GlorotUniform", "config": {"seed": null, "dtype": "float32"}}, "bias_initializer": {"class_name": "Zeros", "config": {"dtype": "float32"}}, "kernel_regularizer": null, "bias_regularizer": null, "activity_regularizer": null, "kernel_constraint": null, "bias_constraint": null}, "inbound_nodes": [[["lambda_13", 0, 0, {}]]]}, {"name": "image_pooling_BN", "class_name": "BatchNormalization", "config": {"name": "image_pooling_BN", "trainable": true, "dtype": "float32", "axis": [3], "momentum": 0.99, "epsilon": 1e-05, "center": true, "scale": true, "beta_initializer": {"class_name": "Zeros", "config": {"dtype": "float32"}}, "gamma_initializer": {"class_name": "Ones", "config": {"dtype": "float32"}}, "moving_mean_initializer": {"class_name": "Zeros", "config": {"dtype": "float32"}}, "moving_variance_initializer": {"class_name": "Ones", "config": {"dtype": "float32"}}, "beta_regularizer": null, "gamma_regularizer": null, "beta_constraint": null, "gamma_constraint": null}, "inbound_nodes": [[["image_pooling", 0, 0, {}]]]}, {"name": "aspp0", "class_name": "Conv2D", "config": {"name": "aspp0", "trainable": true, "dtype": "float32", "filters": 256, "kernel_size": [1, 1], "strides": [1, 1], "padding": "same", "data_format": "channels_last", "dilation_rate": [1, 1], "activation": "linear", "use_bias": false, "kernel_initializer": {"class_name": "GlorotUniform", "config": {"seed": null, "dtype": "float32"}}, "bias_initializer": {"class_name": "Zeros", "config": {"dtype": "float32"}}, "kernel_regularizer": null, "bias_regularizer": null, "activity_regularizer": null, "kernel_constraint": null, "bias_constraint": null}, "inbound_nodes": [[["expanded_conv_16_project_BN", 0, 0, {}]]]}, {"name": "activation_9", "class_name": "Activation", "config": {"name": "activation_9", "trainable": true, "dtype": "float32", "activation": "relu"}, "inbound_nodes": [[["image_pooling_BN", 0, 0, {}]]]}, {"name": "aspp0_BN", "class_name": "BatchNormalization", "config": {"name": "aspp0_BN", "trainable": true, "dtype": "float32", "axis": [3], "momentum": 0.99, "epsilon": 1e-05, "center": true, "scale": true, "beta_initializer": {"class_name": "Zeros", "config": {"dtype": "float32"}}, "gamma_initializer": {"class_name": "Ones", "config": {"dtype": "float32"}}, "moving_mean_initializer": {"class_name": "Zeros", "config": {"dtype": "float32"}}, "moving_variance_initializer": {"class_name": "Ones", "config": {"dtype": "float32"}}, "beta_regularizer": null, "gamma_regularizer": null, "beta_constraint": null, "gamma_constraint": null}, "inbound_nodes": [[["aspp0", 0, 0, {}]]]}, {"name": "lambda_14", "class_name": "Lambda", "config": {"name": "lambda_14", "trainable": true, "dtype": "float32", "function": ["4wEAAAAAAAAAAQAAAAYAAAATAAAAcyAAAAB0AGoBagJqA2oEfACIAGQBZAKFAhkAZANkBGQFjQRT\nACkGTukBAAAA6QMAAADaCGJpbGluZWFyVCkC2gZtZXRob2TaDWFsaWduX2Nvcm5lcnMpBdoCdGba\nBmNvbXBhdNoCdjHaBWltYWdl2gZyZXNpemUpAdoBeCkB2gtzaXplX2JlZm9yZakA+h48aXB5dGhv\nbi1pbnB1dC0zLTdhMzI0OTZlNzhiNz7aCDxsYW1iZGE+XgEAAHMCAAAAFgE=\n", null, [[null, 32, 32, 320]]], "function_type": "lambda", "module": "__main__", "output_shape": null, "output_shape_type": "raw", "output_shape_module": null, "arguments": {}}, "inbound_nodes": [[["activation_9", 0, 0, {}]]]}, {"name": "aspp0_activation", "class_name": "Activation", "config": {"name": "aspp0_activation", "trainable": true, "dtype": "float32", "activation": "relu"}, "inbound_nodes": [[["aspp0_BN", 0, 0, {}]]]}, {"name": "concatenate_3", "class_name": "Concatenate", "config": {"name": "concatenate_3", "trainable": true, "dtype": "float32", "axis": -1}, "inbound_nodes": [[["lambda_14", 0, 0, {}], ["aspp0_activation", 0, 0, {}]]]}, {"name": "concat_projection", "class_name": "Conv2D", "config": {"name": "concat_projection", "trainable": true, "dtype": "float32", "filters": 256, "kernel_size": [1, 1], "strides": [1, 1], "padding": "same", "data_format": "channels_last", "dilation_rate": [1, 1], "activation": "linear", "use_bias": false, "kernel_initializer": {"class_name": "GlorotUniform", "config": {"seed": null, "dtype": "float32"}}, "bias_initializer": {"class_name": "Zeros", "config": {"dtype": "float32"}}, "kernel_regularizer": null, "bias_regularizer": null, "activity_regularizer": null, "kernel_constraint": null, "bias_constraint": null}, "inbound_nodes": [[["concatenate_3", 0, 0, {}]]]}, {"name": "concat_projection_BN", "class_name": "BatchNormalization", "config": {"name": "concat_projection_BN", "trainable": true, "dtype": "float32", "axis": [3], "momentum": 0.99, "epsilon": 1e-05, "center": true, "scale": true, "beta_initializer": {"class_name": "Zeros", "config": {"dtype": "float32"}}, "gamma_initializer": {"class_name": "Ones", "config": {"dtype": "float32"}}, "moving_mean_initializer": {"class_name": "Zeros", "config": {"dtype": "float32"}}, "moving_variance_initializer": {"class_name": "Ones", "config": {"dtype": "float32"}}, "beta_regularizer": null, "gamma_regularizer": null, "beta_constraint": null, "gamma_constraint": null}, "inbound_nodes": [[["concat_projection", 0, 0, {}]]]}, {"name": "activation_10", "class_name": "Activation", "config": {"name": "activation_10", "trainable": true, "dtype": "float32", "activation": "relu"}, "inbound_nodes": [[["concat_projection_BN", 0, 0, {}]]]}, {"name": "dropout_3", "class_name": "Dropout", "config": {"name": "dropout_3", "trainable": true, "dtype": "float32", "rate": 0.1, "noise_shape": null, "seed": null}, "inbound_nodes": [[["activation_10", 0, 0, {}]]]}, {"name": "custom_logits_semantic", "class_name": "Conv2D", "config": {"name": "custom_logits_semantic", "trainable": true, "dtype": "float32", "filters": 2, "kernel_size": [1, 1], "strides": [1, 1], "padding": "same", "data_format": "channels_last", "dilation_rate": [1, 1], "activation": "linear", "use_bias": true, "kernel_initializer": {"class_name": "GlorotUniform", "config": {"seed": null, "dtype": "float32"}}, "bias_initializer": {"class_name": "Zeros", "config": {"dtype": "float32"}}, "kernel_regularizer": null, "bias_regularizer": null, "activity_regularizer": null, "kernel_constraint": null, "bias_constraint": null}, "inbound_nodes": [[["dropout_3", 0, 0, {}]]]}, {"name": "lambda_15", "class_name": "Lambda", "config": {"name": "lambda_15", "trainable": true, "dtype": "float32", "function": ["4wEAAAAAAAAAAQAAAAYAAAATAAAAcyAAAAB0AGoBagJqA2oEfACIAGQBZAKFAhkAZANkBGQFjQRT\nACkGTukBAAAA6QMAAADaCGJpbGluZWFyVCkC2gZtZXRob2TaDWFsaWduX2Nvcm5lcnMpBdoCdGba\nBmNvbXBhdNoCdjHaBWltYWdl2gZyZXNpemUpAdoCeHgpAdoMc2l6ZV9iZWZvcmUzqQD6HjxpcHl0\naG9uLWlucHV0LTMtN2EzMjQ5NmU3OGI3PtoIPGxhbWJkYT6YAQAAcwQAAAAMAQoB\n", null, [[null, 256, 256, 3]]], "function_type": "lambda", "module": "__main__", "output_shape": null, "output_shape_type": "raw", "output_shape_module": null, "arguments": {}}, "inbound_nodes": [[["custom_logits_semantic", 0, 0, {}]]]}, {"name": "activation_11", "class_name": "Activation", "config": {"name": "activation_11", "trainable": true, "dtype": "float32", "activation": "sigmoid"}, "inbound_nodes": [[["lambda_15", 0, 0, {}]]]}], "input_layers": [["input_4", 0, 0]], "output_layers": [["activation_11", 0, 0]]}, "keras_version": "2.2.4-tf", "backend": "tensorflow"}